frameID/prod_net/init_model_classifier_linear.pt (torch, 102219 bytes, 8 tensors)

layers.0.linear.weight f4 [32, 768]
00000000: 7ec5 2bbe e69a 5e3d d1bc 133d 154a 40bd
00000010: d158 92be b91d a23d 4dc3 7b3d 9c33 8abe
00000020: 2bbb aebd 1be1 d8bc 7c05 c4bb ff3b 2fbe
00000030: 06e4 0ebe 385d 3bbe 24c3 52bd c2b6 43bd
00000040: 38fe 3b3e 2423 ca3c 4cbe d8bd a6a5 193d
00000050: 49e8 023d e102 f93c 5b4e ccbd 1f5e 8f3d
00000060: cd07 a5bd a565 493d 1e85 08bd 5d92 d83d
00000070: f047 b1bd 7aaf 8bbd b912 90be e986 fcbd
00000080: 763f dfbc 89cb 27bd afee 7bbd 613d 0f3e
00000090: 3756 823d 743a a43d a045 503d ef0f 3d3e
000000a0: d523 743b f3e1 88be 8b3d 643d 79c5 373e
000000b0: 703e 7cbc 1277 3cbe a197 a83d 9c70 dc3d
000000c0: ba59 9f3e de86 613e 1f5e 8a3d 989e 8dbc
000000d0: fe90 6cbb 280e f43c 59d2 b3bd 7d0a 95bc
000000e0: 28a6 27be 9bc6 4dbd 94a7 82bd 7212 f53d
000000f0: 97cd 93bd 31e0 babd aa9d 2f3e 8520 0a3e
00000100: 74ef 8d3c 1b27 803d c70c a93d b5ea 22be
00000110: f4ea db3d 4d22 b03d 52d3 0a3e dfc7 153e
00000120: 26f4 6a3e a7a0 2d3c df0a be3d 7ad6 61bb
00000130: 1db9 59bd 7d5f 9ebd c98a e1bd 5bc3 35be
00000140: bdd3 233e b25f 4c3d 1800 513d e9ca 11bd
00000150: cc63 b23e 9419 373e 8aab f6bc e4c0 1ebe
00000160: d45b 693e 6983 e73d a000 a3bd e104 613c
00000170: a7cd 903e 8494 a73d b8a9 2f3e 33c0 013e
00000180: 05ba d13c 74e6 8e3d 7dc5 1bbb cf5b 11bd
00000190: 19f0 413c 6d47 283d cbd3 29be d1df a4bd
000001a0: 3807 1cbd a42d 213e 8f63 173e ae2d 3c3d
000001b0: 9ad9 ea3d 4ea8 8f3e 0ffe c23a 34ae 84bc
000001c0: 2acf af3d b9d0 6c3d 76e8 723e fca5 2a3a
000001d0: bd45 933d c79f 903d 478e bf3b 9d17 04bd
000001e0: 1cc5 c23b 6334 9ebe f69f b4bd 3c1a 393d
000001f0: 90cb 94bd a605 e3bd 2a32 0b3e 9c83 ee3d
00000200: ccb7 263e 2d7a e43b ac8a b5bc b2b4 3339
00000210: 0ba9 cc3d 8dff c33d 5b40 403c 385f fbbd
00000220: d7c9 c1bd 9ce7 b43d 3db1 2a3d ea84 26bd
00000230: 0bbc acbc 4bac c53d f29e de3c 850e 2f3d
00000240: 0d6e 053e 9065 1abd 5070 ed3d fcb7 493c
00000250: 95a8 d33e dc96 133d fce0 0d3d b640 aabd
00000260: 94cf 843e c779 b43d b606 063c 2bda 17be
00000270: ffe0 fdbc 35d0 793c 586e 883b 02b8 01bd
00000280: 10d9 213e aec7 843d a0f8 823d a957 7ebb
00000290: 016b 4f3e 1b0e 7d3d 7466 04bc 74e9 babd
000002a0: b202 813a 2fce dab9 aa76 b1bc ab1b 02be
000002b0: a639 21bd 8028 243d 07a6 3d3d e408 993d
000002c0: 0644 033d 1967 693d ff6c 55bd 839a e4bd
000002d0: be02 83bb 56a1 b93d 1bf6 543c 7bd7 113d
000002e0: 84c8 e33d 1b3c 233e 628a 7bbd a444 193c
000002f0: 1fe6 2d3e b500 dbbc aeb9 bdbd fe2b 4bbd
00000300: c489 8abc dc88 c1bc e0d2 d63c cf50 fb3d
00000310: b708 253d 1a96 febc 9a8e 49be df2d acbc
00000320: 980a 9e3d 0416 9cbc eb70 9abc b29b c83b
00000330: 232f 38ba b9f9 18bc c510 dc3c 51e1 fe3d
00000340: 989c bb3c bb15 b83c b663 593d cdd9 51bd
00000350: a86d 8a3e ca17 c03d 4884 3c3a 7c43 68bd
00000360: d08e 803e 2ff0 e73d 722a b33c 1d37 bf3b
00000370: 175b b53e ab8e 3a3e 1ca1 f83d e40e fcbb
00000380: 0b0f 633d 95de 07be ba3b 2bbe b2ef bcbc
00000390: 2170 603e 070f 8dbd 3ecf f4bd ab09 92bd
000003a0: 3894 b73e abf5 d83c 8093 2fbe e5a0 3abe
000003b0: d5de 843d 7182 48bc 9453 68bc 8496 67be
000003c0: a998 fbbd 1c14 a73d abab 463e 4235 b73d
000003d0: 9f14 573d 09a9 07bd 0c4a 453d 0d6b bebd
000003e0: 4e48 97bc a64b dabd 778a 9dba 4c9f 193d
000003f0: e800 093e 8a10 f63b 61f6 913c 379f d83d
-0.16774556 0.05434694 0.03606874 -0.04694565 -0.28583387 0.079158254 0.06146555 -0.269925
-0.08531793 -0.026474526 -0.005982099 -0.1711273 -0.13954172 -0.18297279 -0.05145563 -0.047781713
0.18358696 0.02467496 -0.10583171 0.03751149 0.031959806 0.03039688 -0.099758826 0.07000374
-0.080581285 0.0491692 -0.033330075 0.105747916 -0.08656299 -0.06820579 -0.28139284 -0.123304196
-0.02725194 -0.04096559 -0.061506923 0.13988258 0.063641004 0.080189615 0.05084765 0.1846311
0.0037252803 -0.26734886 0.055722754 0.17946424 -0.015395746 -0.18404797 0.08232046 0.10763666
0.31123143 0.22024104 0.067562334 -0.017287537 -0.0036097164 0.029791906 -0.08780355 -0.018193478
-0.16371977 -0.050238233 -0.06379619 0.11966409 -0.072169475 -0.09124792 0.17149988 0.13488968
0.017326094 0.06257459 0.0825439 -0.15909846 0.10738173 0.08600292 0.13557175 0.14627026
0.22944698 0.010597385 0.09279417 -0.0034460113 -0.053155053 -0.07733057 -0.11012799 -0.17750303
0.1599874 0.04989595 0.05102548 -0.0355939 0.34841764 0.17880851 -0.030111093 -0.1550327
0.22788936 0.113043614 -0.079591036 0.013734073 0.282819 0.08182624 0.17154586 0.12670974
0.025601396 0.06977549 -0.0023768835 -0.035487946 0.011837029 0.041083742 -0.16584699 -0.08050502
-0.03809282 0.15740067 0.14784072 0.045942 0.114672855 0.28058094 0.0014876741 -0.016196348
0.08584435 0.05781624 0.2372149 0.0006509719 0.07191036 0.07061725 0.005845818 -0.032249082
0.0059439074 -0.30899343 -0.08819573 0.045191035 -0.07265389 -0.11085062 0.13593355 0.11646196
0.1628105 0.0069725723 -0.02216085 0.00017138085 0.0999318 0.09570227 0.011734094 -0.12274021
-0.09462326 0.088332385 0.041672934 -0.0406541 -0.02108576 0.09652003 0.0271754 0.042738456
0.13030262 -0.037694514 0.115936875 0.012311932 0.41339555 0.036032543 0.03463839 -0.08313124
0.2593962 0.0881229 0.008180311 -0.14829318 -0.030991076 0.015247394 0.0041635446 -0.031669624
0.15805459 0.064833984 0.06395078 -0.0038809574 0.20255663 0.06178103 -0.008081067 -0.09126559
0.0009842722 -0.0004173382 -0.021663029 -0.12705867 -0.03936162 0.040077686 0.046300914 0.07472399
0.032047294 0.056983087 -0.0521059 -0.11162283 -0.0039981296 0.090639755 0.012998129 0.03560589
0.1112223 0.15940897 -0.06141127 0.009354744 0.16982315 -0.026733736 -0.09263931 -0.0496025
-0.016911395 -0.02362483 0.0262236 0.122712724 0.040291514 -0.031077433 -0.19683304 -0.021017967
0.07716864 -0.019053467 -0.018852672 0.006122076 -0.0007026067 -0.009336882 0.026863465 0.124453194
0.022901818 0.0224713 0.053073607 -0.0512331 0.27036786 0.093795374 0.00071913423 -0.056704983
0.25108957 0.11325108 0.021870825 0.0058354274 0.3542106 0.18218486 0.12140104 -0.007692205
0.055434268 -0.13268502 -0.16722003 -0.023063514 0.21917774 -0.06887632 -0.11953591 -0.0713075
0.3585527 0.026484331 -0.1714611 -0.18225439 0.06487814 -0.012238131 -0.014180083 -0.22616011
-0.12284977 0.081581324 0.19401424 0.08945705 0.0525099 -0.03312019 0.04816632 -0.09297762
-0.018467095 -0.1065896 -0.0012019415 0.037505433 0.13379252 0.007509296 0.017817678 0.10577243

layers.0.linear.bias f4 [32]
00000000: 96fa c73d 5da1 fd3d dd3b 083e 67ed 023d
00000010: f54d 3a3d 8b28 68be 4a16 1abd e42e c4bd
00000020: 72a1 f23d 17f8 423d 5d62 d7bd 0d0c 5d3d
00000030: 2e3b 2c3d 136b cabd ee04 e43d c0ae 94bd
00000040: 85d1 6ebe a425 023e f9c9 77be 8f44 d2be
00000050: 1da5 253e f8fb ef3d c2f9 76be b091 c8bc
00000060: 6ab0 1a3d 185b 26be f3f9 2bbe 90a6 82be
00000070: cc2c 8bbc 421d 02be 1a3c 343e 8456 b93a
0.09764592 0.12384293 0.13304086 0.031964686 0.045484502 -0.22671716 -0.037618913 -0.09579256
0.118471995 0.04759988 -0.10516808 0.05396657 0.042048626 -0.09883704 0.11133753 -0.072598934
-0.23322113 0.12709671 -0.2419814 -0.4106793 0.16176267 0.11717981 -0.24118713 -0.024483532
0.037765898 -0.16245687 -0.16794567 -0.25517702 -0.016989134 -0.12706473 0.17601052 0.0014140164

layers.0.bn.weight f4 [32]
00000000: e8f9 a63f 90f4 9b3f 2163 9a3f 8978 b63f
00000010: 91fc 9f3f 0640 943f ec0c ad3f 656d a03f
00000020: 6449 b13f d07e a53f d90e a33f 216d a53f
00000030: 70ae 853f 7529 9c3f fbef 993f 9ba3 893f
00000040: 3fe9 a33f 26aa 893f 0ba2 9a3f d7f0 a93f
00000050: f4dc 6a3f 7a69 9a3f 4b7a 853f 3c83 813f
00000060: dcc9 8f3f 101b b13f 1bfc 9b3f 73da 883f
00000070: 093a b03f 34ad b23f 38a8 8a3f 4384 943f
1.3045015 1.218401 1.2061502 1.4255534 1.2498952 1.1582038 1.3519568 1.2533385
1.3850522 1.2929325 1.2738906 1.2923928 1.0443859 1.2200152 1.2026361 1.0753053
1.2805556 1.075505 1.2080702 1.3276623 0.917434 1.2063439 1.0427946 1.0118175
1.1233478 1.3836384 1.2186311 1.0691665 1.3767711 1.3959107 1.0832586 1.1602863

layers.0.bn.bias f4 [32]
00000000: 4d86 d83e 73fd 803e 5e2a 85be 05a5 b53e
00000010: 0fda 8d3e aff6 03bf b55e b8bc 698a 98be
00000020: ed8f be3e 69fa 943e d368 b4be 5012 683e
00000030: 7380 ffbe 96b6 14bf 195c fe3e f4a3 24bf
00000040: c83e d2be ccd0 3f3e 616e 0bbf 5f50 0dbf
00000050: dd64 9bbe 9375 3d3e 3cb8 0ebf f761 0dbf
00000060: e3ae edbe 84d0 e9be f3b2 e8be a0d0 08bf
00000070: 1369 e93d 79c8 90be 9994 14bf ee79 3fbd
0.42289963 0.25193366 -0.26008886 0.35477462 0.27705428 -0.51548284 -0.022506097 -0.297931
0.37219182 0.29097298 -0.35236225 0.22663236 -0.49902686 -0.58091104 0.4967964 -0.6431267
-0.41063523 0.18731993 -0.544653 -0.5520076 -0.3035039 0.18501882 -0.5574987 -0.5522761
-0.4642249 -0.45666897 -0.45449027 -0.53443336 0.113969944 -0.28277948 -0.5803924 -0.04674714

layers.0.bn.running_mean f4 [32]
00000000: ba82 0f40 2c65 5040 d857 7f40 99ce 5c40
00000010: 749d 2640 3da5 c03e 61ec df3f 22d7 8f3f
00000020: 73de a13f 4977 9d3f 41a5 0540 63ce f13f
00000030: e049 2640 ac59 583f f5d8 0b3f 8237 6e3f
00000040: 2f46 063f b8f5 2d40 5d15 313f 2d6f bf3e
00000050: 417c 9440 6ef8 e13f bb14 813e 6fee 2440
00000060: 49f7 1f40 dddb 913f 707f 833f f1fd a13e
00000070: 782e 1a40 ee25 993f 6cb4 9540 c5e6 4a3f
2.242354 3.256175 3.9897366 3.4501097 2.6033602 0.37626067 1.7494012 1.1237528
1.2646011 1.2302028 2.0882113 1.8891109 2.598259 0.8451183 0.54627925 0.9305345
0.5245084 2.7181225 0.6917322 0.37389508 4.6401677 1.765394 0.2521113 2.5770528
2.499468 1.1395222 1.0273266 0.31639054 2.4090862 1.19647 4.678274 0.79258376

layers.0.bn.running_var f4 [32]
00000000: aacd b140 7e4c 2c41 bacc 8541 2cd7 0d41
00000010: c4a3 0941 86a6 8e3f 5d08 dc40 37cc 5640
00000020: e1eb 8540 0578 a240 f89d 0341 bde1 bf40
00000030: 714b 0841 22f2 2f40 3330 d13f 73de 5740
00000040: adfe af3f 457c 0a41 1c4e 1940 af15 8a3f
00000050: 04ac a641 d6b2 a340 42b6 103f 81d9 4141
00000060: f94d 2041 212b 8640 6089 9140 2028 2f3f
00000070: 3684 1541 4996 5e40 d154 ba41 2f3a 0040
5.5563555 10.768675 16.724964 8.865032 8.602482 1.1144569 6.876021 3.3562143
4.185044 5.077151 8.226067 5.996306 8.518418 2.7491536 1.6342834 3.3729522
1.3749596 8.655339 2.3953924 1.0787867 20.833992 5.1155806 0.56528103 12.115602
10.019036 4.1927648 4.5480194 0.684206 9.344778 3.4779227 23.291414 2.0035512

layers.1.linear.weight f4 [3, 32]
00000000: 77fd 4fbd 22ff b1bd d88e 9fbe 1200 86be
00000010: 6197 03be 2e06 1dbe d61e f73e 8a75 863e
00000020: c32e 1e3f 686c 0b3f fe70 a5be d04e 8abe
00000030: de01 ccbe d287 c3be c73b 7e3e 0407 2fbe
00000040: 19ad bd3d a117 46be 7fc7 d0be 2fc7 38be
00000050: 08d8 78be 9153 ec3e ff1e 22be e48d c4be
00000060: 0df2 efbe 3791 7a3e f094 003e a231 97be
00000070: cce4 283f 2c1c c63e aedf 97be ed2d 73be
00000080: 7b72 053f 0f1b 033f cbfb 823e 0256 0a3f
00000090: 902d 0d3f 6150 aabe 190e cfbe 3185 02bf
000000a0: 7a66 41be 7200 98be 2dab ad3e f92a 113f
000000b0: a93d e53c c126 7a3d dcdb 913e a9da 0b3e
000000c0: 7f0d c5be 7171 cb3e 8daf f1bd f1f6 debe
000000d0: ffdf 603e 3360 d1be 638b 3bbe e103 9bbc
000000e0: 5ade de3d c423 e8be 7105 f4be 16e0 70be
000000f0: 23eb fabe 38f6 06bf 19e8 853d d96a a23e
00000100: 83ec 40bf 4b27 8dbe f14f e13d ff26 31bf
00000110: ee7e 03bf 6d0e 063f d8b2 3dbc 8876 ad3e
00000120: bd0c 33bf 68c1 08bf 6358 bf3e 5a5c ccbe
00000130: b1e9 843e e654 f13e 2536 22bf 61fc b73e
00000140: d52c 0e3f 7a0b 8dbe 23fe ce3e 6ba7 1e3f
00000150: 3bea 673e c536 b8bd d8a8 d03e 9d18 5f3e
00000160: 4a93 ce3e 7624 b83e c933 9f3e 82a2 e83e
00000170: 9e53 2bbe 2167 dd3e 91b4 ce3e e5b7 b3bd
-0.050778832 -0.08691241 -0.3116367 -0.2617193 -0.12850715 -0.15334389 0.48265713 0.2626155
0.617901 0.5446229 -0.3231277 -0.27013254 -0.39845175 -0.3818956 0.24827491 -0.1709252
0.092615314 -0.19344951 -0.40777203 -0.18044733 -0.2430116 0.46157506 -0.15832137 -0.38389504
-0.46864358 0.24469458 0.12556815 -0.29530054 0.65974116 0.38693368 -0.29662842 -0.23747988
0.5212781 0.51213163 0.25582728 0.5403749 0.5514765 -0.3326445 -0.40440443 -0.50984484
-0.18886748 -0.2968784 0.3391966 0.56706196 0.027983503 0.061072115 0.28488052 0.13657631
-0.3848686 0.39734986 -0.11801062 -0.43547776 0.21960448 -0.40893707 -0.1831489 -0.018922748
0.10882254 -0.45339787 -0.476604 -0.23522982 -0.4900752 -0.5271945 0.0653841 0.31722143
-0.7536089 -0.2756904 0.11001576 -0.6920013 -0.51365554 0.5236576 -0.011578284 0.33879495
-0.6994131 -0.53420115 0.3737212 -0.3991421 0.25959542 0.47135085 -0.6336387 0.35934737
0.5553716 -0.27547818 0.40428266 0.6197421 0.22647946 -0.089948215 0.40753818 0.21786733
0.40346748 0.35965317 0.31094196 0.45436484 -0.16731116 0.43242744 0.40372136 -0.087753095

layers.1.linear.bias f4 [3]
00000000: c7e9 e93e b081 b13d 185d a8be
0.4568617 0.08667314 -0.32883525
