frameID/prod_net/init_model_classifier_linear.pt (torch, 102219 bytes, 8 tensors)

layers.0.linear.weight f4 [32, 768]
0	0x3d3c39e5	0.04595365
1	0xbdb39270	-0.08768165
2	0x3da17aa6	0.078847215
3	0xbb73ddb3	-0.0037211
4	0xbdbf78a9	-0.09349186
5	0x3c89cf8b	0.016822597
6	0x3e172890	0.14761567
7	0x3d2f94ad	0.042866398
8	0xbd3653f5	-0.04451366
9	0x3cf857d4	0.030315317
10	0x3d88266c	0.066479534
11	0xbd9781e7	-0.07397824
12	0xbd0b1c4b	-0.03396253
13	0x3c9b8ee8	0.018989041
14	0x3d6f5fab	0.058440845
15	0x3d9b6810	0.07588208
16	0x3c70e0cc	0.014702033
17	0xbe070140	-0.1318407
18	0xbe1f0d11	-0.15532328
19	0xbd851a01	-0.064991005
20	0x3cc4b776	0.024013262
21	0xbd36ac4e	-0.044597916
22	0xbde67207	-0.11252218
23	0xbe152336	-0.14564213
24	0xbdb4d9e7	-0.08830624
25	0x3e1f9969	0.15585865
26	0xbbfe49e9	-0.0077602756
27	0x3ceb50dd	0.028725082
28	0x3cbbb5ae	0.02291378
29	0x3db2be71	0.0872773
30	0x3da4df00	0.080503464
31	0xbc6a1d4c	-0.0142892115
32	0x3d7a0744	0.061042085
33	0x3cc0ddb7	0.023543222
34	0x3d9c95b6	0.076457426
35	0x3db0132a	0.08597405
36	0x3d0adc4c	0.033901498
37	0xbdf641cb	-0.12024268
38	0xbe17b702	-0.14815906
39	0xbd9e657a	-0.07734199
40	0xbdadb895	-0.08482472
41	0xbe0698af	-0.13144182
42	0xbe5567e2	-0.2084041
43	0xbd4b1604	-0.049581543
44	0xbc98089a	-0.018558789
45	0x3ce1546d	0.027506078
46	0x3d269557	0.040669765
47	0x3ddce699	0.107861705
48	0x3d11f050	0.03562957
49	0x3da719eb	0.0815924
50	0x3e2f6d73	0.17131595
51	0xbd565814	-0.05233009
52	0x3da858be	0.08220051
53	0xbe245644	-0.16048533
54	0xbe6dc6ba	-0.2322034
55	0xbe581472	-0.2110155
56	0x3d3213db	0.043475967
57	0xbe516913	-0.20450239
58	0xbdb3b8f0	-0.087755084
59	0xbddded55	-0.10836283
60	0xbcbbe10b	-0.022934457
61	0x3c1a8731	0.009431646
62	0x3e69bf63	0.22826914
63	0x3de44d20	0.11147523
64	0x3dad6d63	0.084681295
65	0x3cdc514b	0.026894232
66	0x3da56308	0.08075529
67	0x3e19ee87	0.15032397
68	0xbd3de517	-0.046361055
69	0xbdd57903	-0.10423472
70	0xbd865303	-0.06558802
71	0x3cb00ed9	0.021491455
72	0xbd9adc8e	-0.07561599
73	0x3cb760ba	0.02238499
74	0xbd41047f	-0.04712343
75	0x3d83c8f4	0.06434813
76	0xbceea5ab	-0.029131731
77	0x3d8439db	0.064563476
78	0x3df58733	0.11988678
79	0x3d8e39f1	0.06944645
80	0x3da4b6e6	0.080426976
81	0x3ddf2a26	0.10896711
82	0x3e0c273b	0.1368684
83	0x3daa1a62	0.08305813
84	0x3dd892a7	0.10574847
85	0x3d6aba4b	0.05730657
86	0x3d4f5731	0.05062026
87	0x3b952570	0.004551582
88	0xbe47878d	-0.19485302
89	0xbd386ef5	-0.045027692
90	0xbcad4628	-0.021151617
91	0x3d000d33	0.031262588
92	0xbe4139eb	-0.1886975
93	0xbe600666	-0.21877441
94	0xbd6904d2	-0.056889363
95	0xbdfdb76e	-0.12388502
96	0x3d024321	0.0318023
97	0x3e044996	0.12918696
98	0xbdde3c81	-0.10851384
99	0xbd6596d6	-0.05605205
100	0x3ca9668a	0.020678777
101	0xbe630c27	-0.22172605
102	0xbe954db7	-0.29160854
103	0xbe8769df	-0.2644796
104	0xbdb5699e	-0.088580355
105	0xbe7cd559	-0.2469076
106	0xbde09815	-0.10966507
107	0xbe16ec8d	-0.14738674
108	0xbcf55934	-0.029949762
109	0xbd2067e1	-0.039161567
110	0xbd28e0ca	-0.04123
111	0xbd21962d	-0.03944986
112	0x3db8da2c	0.09025988
113	0x3d647ea4	0.055784836
114	0x3d2d54c3	0.042317163
115	0x3dc1ccfd	0.094629265
116	0xbc783c05	-0.0151510285
117	0xbdbe63a0	-0.09296346
118	0xbe0da48b	-0.138323
119	0x3d71b09c	0.05900632
120	0xbdd87471	-0.105690844
121	0xbdbe083b	-0.092789136
122	0xbbeffc2a	-0.0073237615
123	0xbd921bf0	-0.07134235
124	0xbe69ab23	-0.2281919
125	0xbe2f8367	-0.1713997
126	0xbe201feb	-0.15637176
127	0xbdf20153	-0.11816659
128	0xbcb267b1	-0.02177796
129	0xbdb87316	-0.09006326
130	0x3d4901e4	0.04907407
131	0xbd3e0525	-0.046391625
132	0x3d2069e4	0.039163485
133	0xbcb8d3bd	-0.022561902
134	0x3db975d6	0.090556785
135	0x3dd6ca0b	0.104877554
136	0xbd8b94d3	-0.06815495
137	0xbe0a8624	-0.13527733
138	0x3ccc63b7	0.024949891
139	0x3d1e4238	0.03863737
140	0xbd9cf9ab	-0.07664808
141	0xbd103a14	-0.035211638
142	0xbbf539d4	-0.0074837003
143	0x3dec530e	0.11539279
144	0x3d80e787	0.0629416
145	0xbb53e44c	-0.003233212
146	0xbda4caaa	-0.080464676
147	0x3d224102	0.039612778
148	0x3d81b320	0.063329935
149	0xbe2ced3b	-0.16887371
150	0xbe85d851	-0.261416
151	0xbdaa7fd3	-0.08325162
152	0xbd8dfcc0	-0.06932974
153	0x3dbf5686	0.09342675
154	0x3b3cf649	0.002883332
155	0x3cc24ba7	0.023717714
156	0xbd8b351a	-0.06797238
157	0xbc763188	-0.015026458
158	0x3d3d7fdc	0.046264514
159	0xbe0848da	-0.1330904
160	0xbe12a808	-0.14321911
161	0xbe1d9053	-0.15387087
162	0xbda18b28	-0.0788787
163	0xbe116c24	-0.14201409
164	0xbe0e5463	-0.13899378
165	0xbe0c4198	-0.13696897
166	0xbe04c6f4	-0.1296652
167	0xbdcc81f6	-0.099857256
168	0xbe119a72	-0.14219072
169	0xbdd6ac90	-0.104821324
170	0xbe214a29	-0.15750946
171	0xbe1fbea7	-0.15600072
172	0xbe055d3d	-0.13023849
173	0xbe249847	-0.16073714
174	0xbe54d994	-0.20786124
175	0xbe48ed86	-0.19621858
176	0x3cf7840d	0.030214334
177	0xbdaf3657	-0.085552864
178	0xbd342e08	-0.04398921
179	0xbe2d0313	-0.16895704
180	0x3e095a42	0.13413337
181	0x3e26bc88	0.16282856
182	0x3c87bdab	0.016569933
183	0xbc93a2a4	-0.018021889
184	0x3d4b79fb	0.049676877
185	0x3e027533	0.1274002
186	0x3d8c9725	0.06864766
187	0x3dd6a6f7	0.10481065
188	0xbd87edcc	-0.06637153
189	0xbc8adab4	-0.016949989
190	0x3d518972	0.05115647
191	0x3dbee7f7	0.093215875
192	0x3de2fd78	0.110835016
193	0x3d459b9c	0.048244104
194	0x3c64fa83	0.013975742
195	0xbe391936	-0.18076023
196	0x3de4645e	0.11151956
197	0xbc9b18d1	-0.018932732
198	0x3c4a9bda	0.0123662595
199	0xbd56349d	-0.05229627
200	0x3e0c3654	0.136926
201	0x3dcc7a93	0.09984317
202	0x3cfb1c73	0.030653214
203	0x3d825c24	0.06365231
204	0xbe24e4c1	-0.16102888
205	0xbd9b7d99	-0.07592315
206	0x3dc5bd05	0.09655193
207	0xbd8f70fc	-0.07003972
208	0xbe2837c3	-0.16427521
209	0xbcf7bdf4	-0.030241944
210	0x3c37c9b3	0.011217522
211	0xbe0ea1c4	-0.13928896
212	0xbe35abfb	-0.17741387
213	0x3bffef6a	0.007810523
214	0xbd939c62	-0.07207562
215	0xbe321c2b	-0.17393558
216	0xbd7d21ba	-0.061799742
217	0x3d1d977f	0.038474556
218	0xbd00abd4	-0.031413868
219	0xbe1d12ac	-0.15339154
220	0x3d673c72	0.05645413
221	0x3ce93693	0.028468406
222	0xbd6648d9	-0.056221817
223	0xbe1111de	-0.14166972
224	0x3ce1d4c7	0.02756728
225	0x3d820fbb	0.063506566
226	0xbdffddb9	-0.12493462
227	0xbe8698a6	-0.26288337
228	0x3d83306e	0.064057216
229	0xbd375a2b	-0.044763725
230	0xbd697880	-0.056999683
231	0xbdc23603	-0.09482958
232	0xbdc46409	-0.09589393
233	0xbc8a69f5	-0.016896227
234	0x3e1764b7	0.14784513
235	0x3d1aa4b0	0.037754714
236	0xbdd6cf72	-0.10488786
237	0xbd168b7c	-0.036754116
238	0x3e46346c	0.19355935
239	0x3d701fcd	0.058624078
240	0xbd85d790	-0.06535256
241	0xbdf6e9aa	-0.12056287
242	0x3d07a99e	0.033120744
243	0xbd6607d9	-0.056159828
244	0x3d95d4d3	0.073159836
245	0x3caeb59d	0.021326834
246	0x3e06bc4c	0.13157767
247	0xba4a6b09	-0.0007721638
248	0x3c1e1b97	0.009650133
249	0x3dda6ce6	0.10665302
250	0x3e865439	0.26236132
251	0x3dd3bdb8	0.1033892
252	0x3beeafc5	0.007284137
253	0x3e3ad671	0.18245865
254	0x3e222fab	0.15838496
255	0x3e04472c	0.12917775

layers.0.linear.bias f4 [32]
0	0xbc9d0510	-0.019167453
1	0x3db47b7d	0.08812616
2	0x3e29d71c	0.16585964
3	0xbdc102de	-0.09424375
4	0x3c872a7f	0.016499756
5	0xbe3e3867	-0.18576203
6	0x3b65c72f	0.003506135
7	0xbeaad440	-0.3336506
8	0x3e28390f	0.16428016
9	0x3b96131a	0.004579914
10	0x3e1028e3	0.14078097
11	0xbda87c27	-0.08226805
12	0xbcc5ddc6	-0.024153601
13	0xbd7682ab	-0.06018321
14	0x3c8708ad	0.01648363
15	0x3de9465f	0.11390375
16	0xbe2b4262	-0.16724542
17	0x3e6c1cf7	0.23057924
18	0xbdf3214f	-0.118715875
19	0xbd879c3d	-0.06621597
20	0xbde67bb3	-0.112540625
21	0xbc68612b	-0.014183323
22	0xbd18a885	-0.037270088
23	0xbe6c103d	-0.2305307
24	0x3c572ce4	0.013133261
25	0x3d80c737	0.06287997
26	0xbddd52cf	-0.1080681
27	0xbe24cf62	-0.16094735
28	0xbde74e48	-0.11294228
29	0xbe065324	-0.13117653
30	0xbe9a31fc	-0.3011626
31	0xbd06d6e6	-0.032919787

layers.0.bn.weight f4 [32]
0	0x3f87b8d2	1.0603278
1	0x3f8cb004	1.0991216
2	0x3faf923e	1.3716505
3	0x3f81372b	1.0094961
4	0x3f8d82d0	1.1055546
5	0x3f93ae84	1.1537633
6	0x3fa23c3d	1.2674633
7	0x3f9b22b5	1.2119967
8	0x3f8ceb2d	1.100927
9	0x3fb0baa3	1.3806957
10	0x3f8873b2	1.0660307
11	0x3f88afa7	1.0678605
12	0x3f85ed4b	1.0463041
13	0x3f8f25d0	1.1183414
14	0x3fb23a60	1.3924065
15	0x3f973002	1.1811526
16	0x3f999442	1.199837
17	0x3f9c0267	1.2188233
18	0x3f943237	1.1577824
19	0x3fa9b05e	1.3256948
20	0x3f85c4cd	1.0450684
21	0x3f86ca68	1.053052
22	0x3f95eb2d	1.1712395
23	0x3fa14f00	1.2602234
24	0x3f97b946	1.1853416
25	0x3f9ef8e4	1.2419705
26	0x3f8382bc	1.0274272
27	0x3f943c40	1.1580887
28	0x3f86144a	1.0474942
29	0x3f89aa6f	1.0755137
30	0x3fa1f15d	1.2651783
31	0x3f81e6e2	1.0148585

layers.0.bn.bias f4 [32]
0	0xbe7e77a8	-0.24850333
1	0x3f0045fa	0.50106776
2	0x3eac3122	0.33631235
3	0xbee7b4b8	-0.45255065
4	0x3ee08e93	0.43858775
5	0xbee87c9f	-0.45407578
6	0x3f28f5f4	0.66000295
7	0xbf4d0238	-0.8008151
8	0x3f058856	0.5216116
9	0x3e6d05ab	0.23146693
10	0x3efc523b	0.49281487
11	0x3e837fba	0.25683385
12	0xbe4f3089	-0.20233358
13	0xbeb29837	-0.34881756
14	0x3e69a1a8	0.22815573
15	0x3f092110	0.53566074
16	0xbe92118c	-0.28529012
17	0x3f11c6b5	0.5694383
18	0xbf01c512	-0.5069133
19	0xbedb6341	-0.42849162
20	0x3ed65759	0.41863516
21	0xbdfd6157	-0.12372082
22	0xbd59a332	-0.05313415
23	0xbedfe0bd	-0.4372615
24	0xbf13bb53	-0.5770771
25	0xbf2b57ba	-0.66930735
26	0x3ebe5621	0.37175086
27	0xbf472393	-0.77788657
28	0x3e900bdd	0.2813405
29	0xbf00837f	-0.5020065
30	0xbec65a53	-0.38740787
31	0xbebba8ef	-0.36652324

layers.0.bn.running_mean f4 [32]
0	0x4002be99	2.0428832
1	0x4008cc32	2.137463
2	0x40382775	2.8774083
3	0x3fe22a04	1.7669072
4	0x40030056	2.0468955
5	0x3eda7bc6	0.42672557
6	0x3fedd79a	1.8581421
7	0x3f011a49	0.5043073
8	0x40342026	2.8144622
9	0x3ffa8daa	1.9574482
10	0x401d781d	2.4604561
11	0x3f9dbaf7	1.2322682
12	0x4035bd1d	2.8396676
13	0x3ffd6f73	1.9799637
14	0x4011b76a	2.2768197
15	0x3fd65432	1.6744444
16	0x3edf25f6	0.4358365
17	0x40728254	3.7892046
18	0x3f8003d3	1.0001167
19	0x40312ac8	2.7682362
20	0x3eed95bb	0.46403298
21	0x4011c744	2.2777872
22	0x3fd3aa57	1.6536359
23	0x3e91e268	0.28493047
24	0x3feed1cf	1.8657779
25	0x403b5711	2.927189
26	0x3fd59492	1.6685965
27	0x3efd2d35	0.49448553
28	0x3fc961a4	1.5732923
29	0x3fd189f1	1.6370221
30	0x3f369f43	0.71336764
31	0x4004b555	2.0735676

layers.0.bn.running_var f4 [32]
0	0x40d9b030	6.8027573
1	0x40b0b758	5.522381
2	0x411212a1	9.129548
3	0x40bfa6fc	5.989134
4	0x40b4c351	5.6488423
5	0x3f9a2f53	1.2045692
6	0x40cfaca3	6.489824
7	0x3fa55d4b	1.2919096
8	0x40b26441	5.574738
9	0x40fa5766	7.8231688
10	0x40df50ca	6.978612
11	0x4077347c	3.8625784
12	0x41248144	10.281559
13	0x40b03be1	5.5073094
14	0x410bc388	8.735237
15	0x4083790c	4.108526
16	0x3f88905b	1.0669054
17	0x40a6e6bb	5.2156653
18	0x401282f6	2.2892432
19	0x412bc9ef	10.7368
20	0x3fa7e550	1.3116856
21	0x41041a35	8.256398
22	0x4097aa46	4.7395353
23	0x3f50ed65	0.81612235
24	0x410b01ca	8.687937
25	0x413ece5f	11.925384
26	0x40b384bc	5.609953
27	0x3fb1caaf	1.3889979
28	0x409ff0a0	4.998123
29	0x40b8243d	5.7544236
30	0x3fcbf8b4	1.5935273
31	0x40dca1a3	6.894731

layers.1.linear.weight f4 [3, 32]
0	0x3dba4d8c	0.09096822
1	0x3ea632f3	0.32460746
2	0xbe798220	-0.24366045
3	0xbd7c774c	-0.061637208
4	0x3ea57ec9	0.32323292
5	0x3dbeb3f4	0.09311667
6	0x3e420195	0.18945916
7	0xbe69b842	-0.22824195
8	0x3ecf71c8	0.40516496
9	0xbe988452	-0.29788452
10	0x3eda89ba	0.42683202
11	0x3ebf585b	0.37372097
12	0x3e5aa3b0	0.21351504
13	0x3e280815	0.16409333
14	0xbea08a8a	-0.31355697
15	0x3edf274d	0.43584672
16	0x3e628827	0.2212225
17	0x3ecaad27	0.3958523
18	0xbd4bca53	-0.0497535
19	0xbf07c141	-0.5302926
20	0x3eaa7f70	0.33300352
21	0x3e54b3c2	0.20771697
22	0x3e88b719	0.26702192
23	0xbc88dbb7	-0.01670633
24	0xbf03c77f	-0.5147628
25	0xbef7ccc5	-0.48398414
26	0x3eb3566f	0.3502688
27	0xbe8204f0	-0.25394392
28	0x3e8eb9c2	0.27876097
29	0xbd156aec	-0.03647892
30	0x3dabbaf4	0.08385268
31	0x3de33802	0.11094667
32	0xbe997ea0	-0.2997942
33	0xbd6d00b7	-0.05786201
34	0x3f1444ac	0.57917285
35	0xbea77b5c	-0.32711303
36	0xbe4085c6	-0.1880103
37	0xbed5d3a8	-0.41763043
38	0x3e8a8066	0.27051085
39	0xbda34e7c	-0.07973954
40	0x3c2cf1d6	0.010555705
41	0x3f1d7f32	0.6152221
42	0x3cd8c49f	0.026460944
43	0xbea950a8	-0.33069348
44	0xbe40ad55	-0.18816121
45	0xbebca396	-0.36843556
46	0x3f013672	0.504737
47	0x3af97fd8	0.0019035293
48	0xbef084b7	-0.46976253
49	0x3e656ca4	0.22404724
50	0xbe865044	-0.26233113
51	0x3e875aa5	0.26436344
52	0xbe41903a	-0.18902674
53	0xbe8b4046	-0.27197474
54	0xbeb9e408	-0.36306787
55	0xbeed1f9a	-0.46313173
56	0x3e17cea1	0.14824916
57	0x3c058c73	0.0081511615
58	0xbe835288	-0.25648904
59	0xbe7d0217	-0.24707828
60	0xbeaebadf	-0.34126946
61	0xbec36264	-0.38161004
62	0xbee7087e	-0.45123667
63	0xbe6cc872	-0.23123339
64	0x3e4ecd04	0.20195395
65	0xbf103bd8	-0.56341314
66	0xbf1997e2	-0.5999738
67	0x3ed3d7b9	0.4137552
68	0xbec02175	-0.37525526
69	0x3ecd6645	0.40117088
70	0xbf7c70d3	-0.98609656
71	0x3f242ee4	0.6413405
72	0xbf142e55	-0.578832
73	0xbedf8720	-0.4365778
74	0xbefec804	-0.49761975
75	0xbe307af3	-0.17234401
76	0x3e862886	0.26202792
77	0x3eddc570	0.43314695
78	0xbed14699	-0.40874174
79	0xbf15fe8a	-0.5859152
80	0x3ea09dc9	0.3137038
81	0xbf3531ae	-0.7077893
82	0x3eef3fe5	0.46728435
83	0x3eac0a18	0.3360145
84	0xbeb4f17a	-0.35340482
85	0x3e374563	0.17897563
86	0x3e23b405	0.15986641
87	0x3ef0f71d	0.47063532
88	0x3ed5c2ac	0.41750085
89	0x3ef02cbf	0.4690914
90	0xbeb11bfb	-0.3459166
91	0x3ef036bc	0.4691676
92	0xbe318f6a	-0.17339864
93	0x3e911d32	0.28342587
94	0x3f145954	0.57948804
95	0x3ed4b0b1	0.41541055

layers.1.linear.bias f4 [3]
0	0x3edd57a9	0.43230942
1	0x3e3e193c	0.18564314
2	0xbeb0c075	-0.34521833
