frameID/prod_net/init_model_classifier_conv.pt (torch, 180582 bytes, 18 tensors)

conv_layers.0.conv.weight f4 [48, 3, 3, 3]
-0.13656561 -0.1681148 -0.13301265 0.030176638 -0.07459005 -0.20443274 -0.038620844 -0.006624996
0.14371976 -0.05780173 -0.15389745 -0.14049119 -0.21311456 -0.17129385 -0.110718265 0.021037782
0.23666582 0.12187201 0.006042837 0.08755684 -0.016546262 0.105735414 0.06904892 -0.05580107
0.32362637 0.1283642 0.16859081 -0.2583519 -0.14169827 0.00015939987 -0.24072598 -0.22744787
-0.18765213 0.11252594 -0.018161533 0.15878382 -0.11427535 -0.028748685 0.1281505 -0.08075534
0.13251683 0.1780512 0.18125552 0.28411186 0.36568367 -0.05802214 0.11707986 0.068853706
0.080126986 0.014822656 0.069057316 0.111721344 0.15938084 0.15595801 -0.10551345 0.11028579
0.070599094 0.09189223 0.097882204 0.033122845 0.028195249 -0.19564897 -0.108605765 -0.1332234
0.13917592 -0.22891569 -0.0287414 0.058292143 -0.0076810485 0.071753606 -0.25391772 -0.1184379
-0.06295756 0.062287264 0.004067284 -0.0644685 0.049145456 0.20864758 0.20447811 -0.183428
0.114501886 -0.12734362 0.013639924 0.12151794 -0.23232147 0.051637772 -0.16537184 -0.20203258
-0.06215082 -0.2946965 -0.19702703 -0.067755595 0.19900498 -0.047589563 0.033464354 0.039754044
-0.031669233 0.0063248696 -0.13769712 0.043291092 -0.120887615 0.134293 0.096290655 0.19481148
-0.10633843 0.058393408 -0.084276624 -0.11912629 -0.10773703 -0.049680814 -0.0014376807 -0.26796106
-0.17116359 0.13125087 -0.32521814 -0.15557414 0.09893792 -0.046829674 -0.012266648 0.053222768
-0.017992254 -0.07465382 0.033030316 -0.04015834 -0.10962509 0.18585306 0.02816151 -0.13527435
0.03980071 -0.1879185 -0.06445416 0.18796948 -0.0075431294 -0.18900757 0.12547623 -0.009415315
0.03192217 0.17152804 -0.058072347 0.13106994 0.18767375 0.04162624 0.2072347 0.29680747
-0.0761481 0.17139637 0.024883242 -0.11242443 -0.036261793 -0.01095922 -0.06516159 -0.021193476
-0.019433552 -0.23387188 -0.19132212 -0.25566894 -0.23346019 0.026489992 -0.15688439 0.041651275
-0.0028225458 0.056000747 0.11701343 0.2331078 0.21751247 0.056338925 -0.05554034 -0.0051805107
-0.121041514 0.070161596 0.14453003 -0.11241364 -0.045201063 0.15407212 -0.07165561 0.040130023
-0.013508336 -0.19008222 -0.17867796 0.05462742 0.2361529 0.35416028 0.35290483 -0.2312253
-0.027033463 0.04403942 -0.010425553 -0.10180437 -0.16645059 -0.0083915675 0.12911333 0.14047378
-0.04802021 0.10617319 0.13471925 0.077020906 -0.0045095333 -0.07154338 0.03337813 -0.1618906
-0.17434743 -0.117863335 -0.12280921 -0.09556806 -0.0019264874 -0.008071772 -0.050050274 0.009383425
0.23400103 0.34127903 0.0640123 0.5008779 0.42025065 0.026662067 0.053552173 -0.04762334
0.31720498 -0.03840127 -0.041991632 -0.19141294 -0.16868815 -0.041026756 -0.056031507 0.038498137
0.013652205 0.10895153 0.102599695 -0.0041605835 -0.22921334 0.043051157 -0.20162556 -0.20591983
0.14018637 -0.076412834 0.22883819 0.052220494 0.16408515 -0.081552915 -0.23590791 -0.24929303
-0.28982425 -0.19421954 -0.03511349 -0.15565461 -0.2030474 -0.22692543 0.1509586 -0.10266333
-0.019533785 0.052113194 -0.04373118 -0.24312127 -0.084272005 0.08781081 -0.038662184 0.15145816
00000000: dbd7 0bbe 4926 2cbe 7834 08be ff34 f73c
00000010: abc2 98bd d156 51be e430 1ebd 7f16 d9bb
00000020: 462b 133e 82c1 6cbd 4b97 1dbe ecdc 0fbe
00000030: b43a 5abe a867 2fbe 42c0 e2bd 6d57 ac3c
00000040: 8658 723e 0898 f93d fe02 c63b 0051 b33d
00000050: 078c 87bc cf8b d83d 8569 8d3d aa8f 64bd
00000060: 5bb2 a53e e871 033e 12a3 2c3e b346 84be
00000070: 5a19 11be 9424 2739 df80 76be 18e8 68be
00000080: e127 40be 0074 e63d 7fc7 94bc 3a98 223e
00000090: 3209 eabd 5d82 ebbc e239 033e 0e63 a5bd
000000a0: 7eb2 073e 0e53 363e 0c9b 393e 1c77 913e
000000b0: e43a bb3e a0a8 6dbd 91c7 ef3d 2c03 8d3d
000000c0: 9e19 a43d bada 723c ec6d 8d3d 29ce e43d
000000d0: bb34 233e 75b3 1f3e 7017 d8bd 84dd e13d
000000e0: 4296 903d fe31 bc3d 7776 c83d d2ab 073d
000000f0: b9f9 e63c 3458 48be b36c debd b76b 08be
00000100: 2284 0e3e e068 6abe 1673 ebbc bec3 6e3d
00000110: 4eb1 fbbb 8ef3 923d 8101 82be 928f f2bd
00000120: e5ef 80bd ee20 7f3d da46 853b 1008 84bd
00000130: bf4c 493d b6a7 553e b662 513e 8dd4 3bbe
00000140: f77f ea3d 5e66 02be fd79 5f3c 66de f83d
00000150: aee5 6dbe 2182 533d 3c57 29be a1e1 4ebe
00000160: dc91 7ebd 76e2 96be 74c1 49be 72c3 8abd
00000170: f6c7 4b3e 46ed 42bd eb11 093d 23d5 223d
00000180: 99b7 01bd da40 cf3b 7900 0dbe 0052 313d
00000190: ed93 f7bd 1b84 093e 0934 c53d a97c 473e
000001a0: f6c7 d9bd ed2d 6f3d 3999 acbd 7cf8 f3bd
000001b0: 3ba5 dcbd 1c7e 4bbd 8f70 bcba 3132 89be
000001c0: 8245 2fbe a166 063e fe82 a6be d44e 1fbe
000001d0: f79f ca3d 79d0 3fbd 0dfa 48bc 1e00 5a3d
000001e0: 7e64 93bc 1ae4 98bd cc4a 073d 127d 24bd
000001f0: 1f83 e0bd 4450 3e3e f8b2 e63c 5c85 0abe
00000200: 1206 233d b56d 40be 8b00 84bd 127b 403e
00000210: 5b2c f7bb 338b 41be d77c 003e b242 1abc
00000220: d2c0 023d 0ca5 2f3e 45dd 6dbd 3337 063e
00000230: 8c2d 403e 4780 2a3d 5535 543e 26f7 973e
00000240: 89f3 9bbd 8882 2f3e f1d7 cb3c c83e e6bd
00000250: 3f87 14bd 4d8e 33bc 7173 85bd f19d adbc
00000260: 1d33 9fbc 1c7c 6fbe f2e9 43be 0ae7 82be
00000270: 3010 6fbe 8a01 d93c 4da6 20be 879a 2a3d
00000280: 76fa 38bb 0a61 653d bda4 ef3d d0b3 6e3e
00000290: 97bb 5e3e a5c3 663d 447e 63bd 46c1 a9bb
000002a0: 9de4 f7bd e2b0 8f3d aeff 133e 1f39 e6bd
000002b0: c024 39bd 15c5 1d3e 2dc0 92bd 615f 243d
000002c0: 1152 5dbc eaa4 42be 5bf7 36be 00c1 5f3d
000002d0: 11d2 713e 7f54 b53e f1af b43e 53c6 6cbe
000002e0: 4875 ddbc ae62 343d f0cf 2abc cf7e d0bd
000002f0: 0672 2abe c97c 09bc 4936 043e 5cd8 0f3e
00000300: d7b0 44bd 5471 d93d d8f3 093e 23bd 9d3d
00000310: b5c4 93bb 5685 92bd 82b7 083d a6c6 25be
00000320: 2288 32be 5562 f1bd 6583 fbbd 30b9 c3bd
00000330: 3182 fcba 773f 04bc 8401 4dbd f0bc 193c
00000340: f79d 6f3e 20bc ae3e e118 833d 8939 003f
00000350: 182b d73e 686a da3c 8659 5b3d b110 43bd
00000360: b168 a23e a64a 1dbd 6bff 2bbd c101 44be
00000370: 96bc 2cbe ac0b 28bd 4b81 65bd 39b0 1d3d
00000380: 7fad 5f3c fb21 df3d ca1f d23d 8155 88bb
00000390: e7b6 6abe 6956 303d ee76 4ebe a6dc 52be
000003a0: 048d 0f3e 557e 9cbd 8f54 6a3e 28e5 553d
000003b0: f005 283e 3705 a7bd d891 71be ac46 7fbe
000003c0: d863 94be 7de1 46be 2ad3 0fbd ec63 1fbe
000003d0: a8eb 4fbe 245f 68be e494 1a3e 2741 d2bd
000003e0: 5105 a0bc a574 553d 771f 33bd c8f4 78be
000003f0: cd96 acbd 27d6 b33d 3d5c 1ebd d917 1b3e

conv_layers.0.conv.bias f4 [48]
-0.09228379 -0.13206291 -0.2164359 0.25944218 0.0478272 0.055056248 0.11556275 0.0016431408
-0.04143463 -0.02441778 0.1583098 -0.0053630467 0.17261322 -0.3019449 -0.2555135 0.11108005
-0.14865418 0.028308535 -0.26251215 0.036259294 -0.010274849 -0.15083747 0.11096118 0.058079056
0.32991672 0.027892264 -0.23234083 0.07541492 0.10280553 -0.0027733494 -0.26116484 0.32335532
-0.029400885 0.022276336 0.044226058 0.059629384 0.052260343 -0.019564914 0.029705977 -0.07361657
-0.12488064 0.06328348 0.21811189 -0.0031361678 0.36155024 -0.22773981 0.12977935 0.058877286
00000000: 49ff bcbd 803b 07be 5fa1 5dbe 9bd5 843e
00000010: 74e6 433d a982 613d 2aac ec3d a85e d73a
00000020: 5cb7 29bd cc07 c8bc f71b 223e 7fbc afbb
00000030: 85c1 303e 8698 9abe aad2 82be f07d e33d
00000040: cd38 18be 4de7 e73c fe67 86be a084 143d
00000050: d757 28bc 2375 1abe 9d3f e33d 4ee4 6d3d
00000060: d8ea a83e 517e e43c c1ea 6dbe 2373 9a3d
00000070: b58b d23d 15c1 35bb 66b7 85be d48e a53e
00000080: 20da f0bc dd7c b63c 6226 353d f13d 743d
00000090: f10e 563d 9946 a0bc f359 f33c 49c4 96bd
000000a0: 6cc1 ffbd c59a 813d b958 5f3e 2a88 4dbb
000000b0: 1d1d b93e a034 69be e1e4 043e 4f29 713d

conv_layers.0.bn.weight f4 [48]
0.65298414 1.0394437 0.8293721 0.8193551 0.69306827 0.7901621 0.69091195 0.80841076
0.93659747 0.8456577 0.81465477 0.9977781 0.82583034 0.85575235 0.84889734 0.9389966
0.67951536 0.46926695 0.667035 0.70037967 0.801013 0.7384317 0.9608637 0.8744247
0.94464236 0.53872 0.72697014 0.90354085 0.8085798 0.7226196 0.91536474 0.78152907
0.54933757 0.5279325 0.8315934 0.3798938 0.982821 0.7374804 0.68155015 0.8031735
0.8287177 0.9074987 0.8918229 0.75199336 0.70554054 0.9610895 0.88736683 1.0829153
00000000: f829 273f 7e0c 853f bb51 543f 41c1 513f
00000010: ec6c 313f 1048 4a3f 9bdf 303f 02f4 4e3f
00000020: dac4 6f3f 067d 583f 378d 503f 636e 7f3f
00000030: 9e69 533f 9612 5b3f 5651 593f 1562 703f
00000040: b8f4 2d3f c243 f03e cec2 2a3f 154c 333f
00000050: 300f 4d3f dc09 3d3f 2afb 753f 4cda 5f3f
00000060: 15d4 713f 8ee9 093f b71a 3a3f 744e 673f
00000070: 16ff 4e3f 99fd 383f 5855 6a3f 4a12 483f
00000080: 63a1 0c3f 9626 073f 4ee3 543f 7181 c23e
00000090: 289a 7b3f 84cb 3c3f 127a 2e3f c79c 4d3f
000000a0: d826 543f d651 683f 814e 643f a382 403f
000000b0: 4e9e 343f f609 763f 792a 633f f89c 8a3f

conv_layers.0.bn.bias f4 [48]
0.17706892 0.14234167 0.22700842 0.15198675 0.07752942 -0.026871642 0.152848 0.11744164
0.18433127 0.07594825 0.28837466 0.015440377 0.096830375 0.5239231 0.28958946 0.08974412
0.18416508 0.17738429 0.11882612 -0.017014619 0.31659254 0.13613588 0.06354693 0.21190806
0.12519029 0.018914646 0.011742379 0.2486541 -0.04556385 -0.018051228 0.2343295 0.2959012
2.814204e-05 0.20188458 0.16538502 0.15783112 0.14319086 0.31911665 0.02044505 0.15773506
0.41901878 0.18922172 0.06967924 0.3827743 0.053885065 0.13767667 0.053446636 0.21353818
00000000: 8e51 353e 04c2 113e e574 683e 6aa2 1b3e
00000010: bfc7 9e3d eb21 dcbc 3084 1c3e 3e85 f03d
00000020: 56c1 3c3e c28a 9b3d d8a5 933e a3f9 7c3c
00000030: 014f c63d d31f 063f 1245 943e c4cb b73d
00000040: c595 3c3e 3aa4 353e 1c5b f33d 3e62 8bbc
00000050: 6b18 a23e 3467 0b3e e524 823d 6dfe 583e
00000060: e231 003e e3f2 9a3c 1b63 403c 2e9f 7e3e
00000070: 29a1 3abd 2be0 93bc 13f4 6f3e 5d80 973e
00000080: 9212 ec37 d5ba 4e3e b15a 293e 7b9e 213e
00000090: a0a0 123e 4263 a33e 617c a73c 4d85 213e
000000a0: a189 d63e 57c3 413e fdb3 8e3d fefa c33e
000000b0: 96b6 5c3d 1dfb 0c3e dcea 5a3d c1a9 5a3e

conv_layers.0.bn.running_mean f4 [48]
0.01315851 0.4030771 0.0020560825 0.02188056 0.00420688 0.18738034 0.51618654 0.5042381
0.0017421155 0.00021841683 0.3959591 0.011612629 0.4675451 0.082396425 0.074002214 0.01639285
0.0014996942 0.17059474 6.2458093e-07 0.4501168 6e-45 0.39954445 0.20357321 0.23415303
0.51096904 0.28717124 6e-45 0.012045539 0.53761464 4.730122e-39 0.0465197 0.5309975
6e-45 0.036405552 0.17576456 0.045626566 0.0039436677 0.040926963 0.5678943 0.0458307
0.0 0.3185629 0.2935792 0.0733375 0.18860154 0.0064076083 0.36092156 0.007984724
00000000: cb96 573c 1f60 ce3e 57bf 063b dc3e b33c
00000010: ded9 893b a2e0 3f3e cd24 043f c015 013f
00000020: b257 e43a d206 6539 27bb ca3e e542 3e3c
00000030: 1262 ef3e 75bf a83d 798e 973d 4c4a 863c
00000040: 6391 c43a 63b0 2e3e e0a8 2735 b675 e63e
00000050: 0400 0000 1791 cc3e 7f75 503e d0c5 6f3e
00000060: dece 023f 1c08 933e 0400 0000 a75a 453c
00000070: 1da1 093f a881 3300 718b 3e3d 74ef 073f
00000080: 0400 0000 fd1d 153d a0fb 333e ece2 3a3d
00000090: e239 813b 08a3 273d 8561 113f f9b8 3b3d
000000a0: 0000 0000 ad1a a33e 0350 963e f931 963d
000000b0: c320 413e eaf6 d13b b6ca b83e 5cd2 023c

conv_layers.0.bn.running_var f4 [48]
0.0030790437 0.03832071 0.00029593433 0.0036582632 0.0008247403 0.0110966405 0.04378144 0.07043927
0.00033006445 3.480305e-05 0.03125219 0.0035359033 0.031643968 0.02406256 0.01956317 0.003278706
0.0002859064 0.013302056 4.5182702e-08 0.039649684 6e-45 0.056062166 0.021048645 0.018699082
0.026184576 0.027545705 6e-45 0.0023919432 0.041665934 1.616e-42 0.010985386 0.022472823
6e-45 0.009923571 0.022993328 0.008061628 0.0005942206 0.009752737 0.0695727 0.012594921
6e-45 0.028846053 0.018052883 0.01655008 0.0086547015 0.0011571369 0.027068319 0.001293546
00000000: c8c9 493b 2df6 1c3d a227 9b39 79bf 6f3b
00000010: 6233 583a afce 353c 2b54 333d 7742 903d
00000020: 800c ad39 7ef9 1138 4c02 003d 9dba 673b
00000030: 1b9d 013d d91e c53c f142 a03c 8fdf 563b
00000040: b5e5 9539 def0 593c e80e 4233 b567 223d
00000050: 0400 0000 71a1 653d 356e ac3c d12e 993c
00000060: 0981 d63c 88a7 e13c 0400 0000 26c2 1c3b
00000070: e6a9 2a3d 8104 0000 0cfc 333c ed18 b83c
00000080: 0400 0000 7996 223c 815c bc3c eb14 043c
00000090: 78c5 1b3a f2c9 1f3c 227c 8e3d ed5a 4e3c
000000a0: 0400 0000 8f4e ec3c a4e3 933c 0994 873c
000000b0: 73cc 0d3c 12ab 973a 61be dd3c 348c a93a

conv_layers.1.conv.weight f4 [48, 48, 3, 3]
-0.11120883 -0.055176537 0.0090469085 0.013274777 0.03799455 0.028313346 -0.10864809 -0.047365945
0.037794847 -0.045785975 -0.12256279 -0.11703247 -0.009879264 -0.07422841 -0.03176475 -0.095998324
-0.11370706 -0.07297548 -0.02256435 -0.010503383 0.072215825 0.063349225 0.08752799 0.13671167
-0.019071981 0.002687113 0.103338495 -0.014534428 0.02391839 0.12907942 -0.016074397 0.04471509
0.09543598 0.011092812 0.091302246 0.24858345 -0.018139929 -0.0321979 0.0512468 -0.04926724
-0.018704338 0.2366151 0.042173747 0.007997178 -0.009159168 0.01567348 0.08259371 0.014727164
-0.071980126 -0.059957013 0.08908321 -0.014354493 -0.008111675 0.056378435 -0.116620615 -0.044432677
-0.020300223 0.02696494 0.007597273 0.10186869 0.047847174 -0.05207653 0.112450585 -0.0033559124
-0.04683283 0.062481426 0.061722383 -0.008269596 0.15326971 0.0425238 -0.072488226 0.011373083
-0.27734947 -0.19015011 -0.21755162 -0.0468558 0.026899759 0.09449836 0.080512054 -0.09404177
0.072260566 -0.21856874 -0.19558574 -0.09472209 -0.2352276 -0.29814854 -0.11338458 -0.021687936
0.082050726 0.12926088 -0.07383536 -0.027566852 0.06816511 0.069869354 0.051333584 0.10444562
-0.1289521 -0.018319637 0.0011154019 0.056306466 0.00085961696 0.10456839 0.13580677 0.13327366
0.15798618 0.09852575 0.1343871 0.22310315 -0.021679722 0.02101305 0.013039705 0.0504647
0.14782433 0.11620666 0.06356979 0.038908023 0.029431777 -0.20582265 -0.06357837 -0.04627218
-0.022824567 -0.11004059 0.029189235 0.04151372 -0.18932234 0.07296874 -0.20863895 -0.0058407155
0.02014624 0.012380963 -0.045775473 0.06446586 0.13516076 -0.08000241 0.08101991 0.022484448
0.17088328 0.12015594 0.064762756 0.12730624 0.28626776 0.2828279 0.30265152 0.20986697
-0.13390155 -0.040026404 -0.042295042 -0.06451932 0.08399035 -0.028260019 -0.10532598 0.041924823
-0.122055985 -0.03752601 0.13742504 0.15069535 0.08834301 0.13475515 0.043816485 0.03356644
0.06419646 0.29660147 -0.025510572 -0.064960174 0.00047915254 0.015425571 -0.07803686 -0.027042678
-0.09479905 -0.12877329 -0.0694372 -0.05284256 -0.030822463 -0.082295924 0.0066648605 -0.028077597
0.093490265 0.027223144 -0.09240357 -0.002479297 -0.27803966 -0.2409013 -0.24923143 -0.23453072
-0.24385701 -0.23097451 -0.17108391 -0.2107148 -0.21102296 -0.06547362 -0.052590903 -0.024755474
0.01325011 -0.033989247 -0.06410735 -0.087726146 -0.080607034 -0.10818057 -0.04421016 0.09023667
0.08909729 -0.06007723 0.09316529 0.13882315 0.13146497 -0.013580056 0.12482303 -0.035685994
-0.022210376 -0.016479947 0.015167292 -0.03143533 0.011398436 -0.14064232 -0.066053085 -0.04716409
-0.037196264 0.11904461 -0.029169997 0.15213946 0.26214442 -0.006822163 0.10534532 0.14166337
-0.064474344 -0.14509803 0.011698785 -0.042060144 0.038039796 0.007320366 0.1871989 0.08311855
-0.021745218 0.08430628 -0.05188007 -0.017946517 -0.05449208 -0.04814446 -0.086187296 -0.040427975
-0.019538438 0.009332276 -0.04561648 -0.08942956 -0.16539016 0.07687524 -0.122349866 -0.1880797
0.035511304 -0.22076793 0.11089646 -0.11471008 0.033270303 0.098577276 0.025207058 0.06858628
00000000: 74c1 e3bd cb00 62bd 7c39 143c 737e 593c
00000010: 2ca0 1b3d 64f1 e73c e482 debd cb02 42bd
00000020: c5ce 1a3d 138a 3bbd 3302 fbbd b8ae efbd
00000030: a3dc 21bc 1105 98bd c11b 02bd c59a c4bd
00000040: 3fdf e8bd 2b74 95bd dfd8 b8bc 6216 2cbc
00000050: e4e5 933d 3dbd 813d e041 b33d 25fe 0b3e
00000060: d83c 9cbc 461a 303b 22a3 d33d cf21 6ebc
00000070: 80f0 c33c 652d 043e 74ae 83bc 2c27 373d
00000080: f073 c33d a0be 353c acfc ba3d a98c 7e3e
00000090: 309a 94bc f2e1 03bd 2ae8 513d 72cc 49bd
000000a0: d739 99bc 3b4b 723e 61be 2c3d 9806 033c
000000b0: 5610 16bc ac65 803c e426 a93d 344a 713c
000000c0: 516a 93bd 7c95 75bd 4271 b63d 1b2f 6bbc
000000d0: d5e6 04bc 13ed 663d cad6 eebd 0aff 35bd
000000e0: a74c a6bc 94e5 dc3c 8cf2 f83b 88a0 d03d
000000f0: 66fb 433d 334e 55bd 7e4c e63d deee 5bbb
00000100: c8d3 3fbd 86ec 7f3d 9cd0 7c3d 337d 07bc
00000110: bcf2 1c3e 702d 2e3d b574 94bd 2b56 3a3c
00000120: c000 8ebe b6b6 42be dac5 5ebe deeb 3fbd
00000130: e25c dc3c 5b88 c13d 81e3 a43d f998 c0bd
00000140: 59fd 933d 7cd0 5fbe a147 48be a8fd c1bd
00000150: 81df 70be eda6 98be 2d36 e8bd e6aa b1bc
00000160: 360a a83d f75c 043e fe36 97bd e1d3 e1bc
00000170: 269a 8b3d aa17 8f3d 2a43 523d 96e7 d53d
00000180: 050c 04be 1013 96bc ad32 923a 9ca1 663d
00000190: eb57 613a f427 d63d ee10 0b3e e478 083e
000001a0: 21c7 213e dec7 c93d c69c 093e 2775 643e
000001b0: ac99 b1bc 8f23 ac3c 7da4 553c 13b4 4e3d
000001c0: 435f 173e c2fd ed3d e130 823d 055e 1f3d
000001d0: e91a f13c 2cc3 52be 6035 82bd e687 3dbd
000001e0: 96fa babc f65c e1bd 431e ef3c 4a0a 2a3d
000001f0: b7dd 41be a270 953d 73a5 55be 7963 bfbb
00000200: ba09 a53c 86d9 4a3c 107f 3bbd ad06 843d
00000210: 9567 0a3e 4ed8 a3bd c4ed a53d 4e31 b83c
00000220: 07fc 2e3e 5114 f63d 56a2 843d 915c 023e
00000230: b091 923e d2ce 903e 24f5 9a3e 5ee7 563e
00000240: 7d1d 09be baf2 23bd 913d 2dbd b522 84bd
00000250: 2203 ac3d 8e81 e7bc 26b5 d7bd 5db9 2b3d
00000260: 7df8 f9bd e0b4 19bd 26b9 0c3e e24f 1a3e
00000270: 2eed b43d 41fd 093e ea78 333d f77c 093d
00000280: 6f79 833d 26dc 973e 8cfb d0bc d709 85bd
00000290: c436 fb39 89bb 7c3c cad1 9fbd 9b88 ddbc
000002a0: 0126 c2bd 25dd 03be 1735 8ebd 7171 58bd
000002b0: 647f fcbc c48a a8bd e764 da3b fd02 e6bc
000002c0: d377 bf3d 1203 df3c 153e bdbd b47b 22bb
000002d0: 375b 8ebe d5ae 76be 8636 7fbe d228 70be
000002e0: a7b5 79be 9584 6cbe 9f30 2fbe 9fc5 57be
000002f0: 6716 58be 0917 86bd 8f69 57bd fecb cabc
00000300: fd16 593c 4f38 0bbd b74a 83bd c4a9 b3bd
00000310: 4d15 a5bd c68d ddbd b615 35bd 01ce b83d
00000320: a478 b63d 8b13 76bd 72cd be3d a827 0e3e
00000330: c19e 063e e27e 5ebc 37a3 ff3d 7a2b 12bd
00000340: 89f2 b5bc f400 87bc 3c80 783c 55c2 00bd
00000350: 81c0 3a3c 8a04 10be d746 87bd 222f 41bd
00000360: 1c5b 18bd a9cd f33d ebf5 eebc 72ca 1b3e
00000370: cb37 863e 738c dfbb 4abf d73d 3410 113e
00000380: 200b 84bd 9494 14be 43ac 3f3c 4247 2cbd
00000390: 9ecf 1b3d aedf ef3b 12b1 3f3e 0f3a aa3d
000003a0: 0723 b2bc c5a8 ac3d 3280 54bd 9304 93bc
000003b0: 1633 5fbd 2033 45bd f782 b0bd ce97 25bd
000003c0: 130f a0bc 67e6 183c 59d8 3abd d826 b7bd
000003d0: 0a5c 29be c470 9d3d 9192 fabd f797 40be
000003e0: 4d74 113d fd10 62be af1d e33d 1eed eabd
000003f0: 7146 083d e2e2 c93d 087f ce3c f776 8c3d

conv_layers.1.conv.bias f4 [48]
-0.30601713 -0.13391921 -0.116975844 -0.18554778 -0.16120812 -0.011351708 -0.0027015766 -0.3377317
-0.14448819 -0.23308575 -0.007935517 -0.15747046 -0.34889135 -0.050024327 0.030265441 0.074873745
-0.206966 -0.23833282 -0.19049728 -0.14730398 -0.1648918 -0.11390344 -0.090061635 -0.3254685
-0.07724416 -0.42253336 -0.11850211 0.04654886 -0.32091898 -0.10358153 -0.31625035 -0.03625494
0.010833349 -0.018837651 -0.35726506 -0.017917678 -0.07678415 -0.19609547 -0.3564944 -0.12810251
-0.04778343 -0.096742615 -0.034600724 0.13071463 -0.27591172 -0.045045692 0.025604827 0.041759823
00000000: 47ae 9cbe 1e22 09be 0891 efbd 3d00 3ebe
00000010: be13 25be 84fc 39bc ef0c 31bb 2beb acbe
00000020: b6f4 13be 08ae 6ebe f803 02bc f03f 21be
00000030: e3a1 b2be 4fe6 4cbd 3bef f73c 6857 993d
00000040: e5ee 53be 850d 74be b811 43be dbd6 16be
00000050: 65d9 28be 3546 e9bd 3c72 b8bd cfa3 a6be
00000060: 3032 9ebd 4b56 d8be 3cb1 f2bd 04aa 3e3d
00000070: 7e4f a4be 8e22 d4bd 91eb a1be 0f80 14bd
00000080: 5c7e 313c 6b51 9abc 72eb b6be 18c8 92bc
00000090: 0241 9dbd 40cd 48be 6f86 b6be 4e2d 03be
000000a0: 8fb8 43bd fe20 c6bd 7db9 0dbd 0eda 053e
000000b0: 4d44 8dbe d581 38bd 37c1 d13c 590c 2b3d

conv_layers.1.bn.weight f4 [48]
0.7256281 0.532517 0.8398704 0.67598134 0.5286299 0.7570046 0.6794129 0.7939033
0.6691505 0.619643 0.7553255 0.88419366 0.76091415 0.7142299 0.79306656 0.83058983
0.52622265 0.6925568 0.90682286 0.61132056 0.8423907 0.85112214 0.604112 0.92988193
0.7050057 0.7572266 0.87768316 0.8189195 0.8736827 0.90660244 0.7975236 0.93468887
0.92280996 0.6529472 0.8656913 0.81037456 0.764175 0.8733663 0.9581307 0.824176
0.87540513 0.8469084 0.66317344 0.8288964 0.8104901 0.75557035 0.7213655 0.8042336
00000000: c3c2 393f 0953 083f bf01 573f 1d0d 2d3f
00000010: 4a54 073f 0ecb 413f 01ee 2d3f 3f3d 4b3f
00000020: 724d 2b3f eca0 1e3f 035d 413f 845a 623f
00000030: 45cb 423f c5d7 363f 6906 4b3f 89a1 543f
00000040: 87b6 063f 674b 313f 8b25 683f 817f 1c3f
00000050: eba6 573f 24e3 593f 16a7 1a3f be0c 6e3f
00000060: 417b 343f 9ad9 413f d8af 603f b5a4 513f
00000070: aba9 5f3f 1917 683f 822a 4c3f c547 6f3f
00000080: 463d 6c3f 8c27 273f f29d 5d3f b574 4f3f
00000090: f9a0 433f ef94 5f3f 0e48 753f 33fd 523f
000000a0: 8d1a 603f fdce 583f bcc5 293f 8e32 543f
000000b0: 477c 4f3f 0f6d 413f 69ab 383f 41e2 4d3f

conv_layers.1.bn.bias f4 [48]
0.5241787 0.17118339 -0.14205141 0.19795536 -0.06922283 0.16882548 0.08076143 0.5827206
0.23408693 0.5746431 -0.37261543 0.30532035 0.61261857 0.39296478 0.13455512 -0.049276154
0.056744434 0.38178083 0.32462144 0.2367846 0.31790403 0.32182446 -0.24294409 0.53072476
0.055086087 0.46893948 -0.18539643 -0.06890889 0.45506766 0.19641866 0.5137509 0.13855453
0.20075731 -0.1565117 0.5494569 0.05395971 -0.27190286 0.16438438 0.42571503 0.31987575
0.13122138 -0.06655292 0.07801845 0.2401814 0.4570281 -0.16043673 0.13277136 0.2115491
00000000: 9330 063f b34a 2f3e ed75 11be cfb4 4a3e
00000010: b3c4 8dbd 96e0 2c3e 4066 a53d 2d2d 153f
00000020: 7cb4 6f3e cf1b 133f 73c7 bebe f352 9c3e
00000030: 92d4 1c3f ae32 c93e d1c8 093e cbd5 49bd
00000040: da6c 683d c778 c33e c834 a63e aa77 723e
00000050: 51c4 a23e 2dc6 a43e 56c6 78be 94dd 073f
00000060: f3a1 613d d618 f03e 90d8 3dbe 1b20 8dbd
00000070: a1fe e83e f921 493e 2e85 033f 3de1 0d3e
00000080: 5393 4d3e 9a44 20be 35a9 0c3f db04 5d3d
00000090: da36 8bbe 6154 283e 52f7 d93e c1c6 a33e
000000a0: e65e 063e e64c 88bd 23c8 9f3d 1df2 753e
000000b0: 96ff e93e 8749 24be 37f5 073e 54a0 583e

conv_layers.1.bn.running_mean f4 [48]
3.0292196 2.681115 1.2358545 2.3693242 0.8343108 2.3451614 1.9128274 2.0786462
1.9536486 2.9258857 2.538896 1.0018349 2.0486846 1.9488734 3.0455365 3.274502
0.9121273 0.8838194 2.4574275 3.2482305 0.6393225 2.0435362 1.0421525 0.9236078
1.4918386 2.9455147 0.90062374 2.608572 0.8383075 1.1398582 1.8271036 1.379279
2.6300285 1.2866422 0.25026405 2.2253726 1.6176319 0.6517734 1.3740648 1.8256629
1.1348175 1.6383272 1.1556419 3.3806856 3.0000956 1.6985135 2.8671083 2.508168
00000000: bcde 4140 6397 2b40 7b30 9e3f 02a3 1740
00000010: 6595 553f 2017 1640 87d7 f43f 8a08 0540
00000020: 2811 fa3f b641 3b40 467d 2240 203c 803f
00000030: a61d 0340 af74 f93f 12ea 4240 7191 5140
00000040: 2d81 693f fd41 623f 7e46 1d40 02e3 4f40
00000050: a4aa 233f 4cc9 0240 4165 853f 9071 6c3f
00000060: 91f4 be3f 5083 3c40 478f 663f d8f2 2640
00000070: 529b 563f e0e6 913f 88de e93f 378c b03f
00000080: 6352 2840 b1b0 a43f 9c22 803e 816c 0e40
00000090: 900e cf3f 9fda 263f 5be1 af3f 52af e93f
000000a0: b341 913f b5b4 d13f 13ec 933f 275d 5840
000000b0: 9101 4040 e468 d93f b47e 3740 d385 2040

conv_layers.1.bn.running_var f4 [48]
27.305956 10.117659 4.792695 7.200927 6.0135984 7.209907 3.6618178 14.258283
5.922704 21.984142 6.062868 5.949972 14.384517 4.5352693 9.906219 9.455657
3.7712984 4.842486 13.283836 21.349876 1.8433914 6.834388 1.9894017 6.1650596
3.7568245 22.924322 3.184364 7.0285397 4.302292 4.727258 12.065105 3.0903916
5.818942 4.230739 0.6946459 6.931865 4.878041 5.069099 8.047625 6.969582
3.6764097 2.9713109 3.8813176 5.3485107 21.970285 3.3559625 5.7073045 7.940124
00000000: 9972 da41 eee1 2141 c25d 9940 fe6d e640
00000010: 666f c040 8fb7 e640 395b 6a40 ed21 6441
00000020: cb86 bd40 86df af41 0403 c240 2c66 be40
00000030: fb26 6641 ed20 9140 df7f 1e41 5f4a 1741
00000040: f45c 7140 a5f5 9a40 988a 5441 8ccc aa41
00000050: 40f4 eb3f 4eb3 da40 b7a4 fe3f 2b48 c540
00000060: d06f 7040 0365 b741 9fcc 4b40 cce9 e040
00000070: 60ac 8940 b345 9740 ac0a 4141 fac8 4540
00000080: c634 ba40 3762 8740 50d4 313f d7d1 dd40
00000090: e918 9c40 0f36 a240 12c3 0041 d106 df40
000000a0: 4c4a 6b40 f529 3e40 8267 7840 0027 ab40
000000b0: 25c3 af41 17c8 5640 3da2 b640 7f15 fe40

conv_layers.2.conv.weight f4 [48, 48, 3, 3]
0.1864663 0.19509651 0.030870557 0.20292518 0.34768426 0.14962035 -0.05014736 0.061327413
-0.11631642 -0.105413005 -0.040679984 -0.10628643 -0.10886599 -0.17919064 -0.11106384 -0.10026638
-0.044339474 -0.065363735 -0.0008632833 -0.029978449 -0.05707274 -0.18844995 -0.09359813 -0.102469705
-0.049514703 0.02349632 -0.022735978 0.16677043 0.16440599 0.14774403 0.005960272 0.02009343
0.051135596 0.043373223 0.12303542 0.13423231 0.031975217 -0.04972083 -0.05374445 -0.0706829
-0.033565998 -0.015694445 -0.16073354 -0.07460648 -0.07185558 -0.013007987 -0.01786564 -0.007282827
0.1313628 -0.17603044 -0.090282254 -0.032803528 -0.06086806 -0.1021448 0.111733556 0.14527707
0.13500546 -0.189824 -0.14216924 -0.15428108 -0.10653257 -0.27964172 -0.21676013 0.18717875
0.20520759 0.07269076 0.1939423 0.16706465 0.22558126 -0.04871424 0.046912774 0.01188059
-0.034488514 0.119260386 0.04318734 0.04568838 0.048050202 0.055458836 0.013702914 -0.050897334
0.05527655 0.18662389 0.17650552 -0.019897768 0.1543756 0.24635321 0.10077 0.008644591
0.07920907 -0.16287927 0.107681096 0.014793362 -0.05234205 0.1037389 -0.017590784 0.076214224
0.12919585 0.14228536 0.16819051 0.0140694985 0.1748287 -0.006083493 -0.016817251 0.07125889
-0.14804383 0.09965839 -0.051679093 -0.38323486 -0.0022289993 0.065013446 -0.0933944 0.08998228
0.15275867 -0.03209522 -0.09678994 0.08440101 0.10095731 -0.07107334 0.0614392 -0.30667666
-0.069227636 -0.108438686 -0.30833733 -0.08609285 -0.19598742 -0.24118915 0.24323323 0.03637736
0.17204617 -0.009532939 -0.0021501812 -0.040739883 -0.026226338 -0.12545615 -0.16568714 0.12276011
0.11005529 0.110307924 -0.17787772 -0.1052263 0.09577063 0.011459346 -0.02378849 0.1257837
-0.05107241 0.07055163 0.008296836 -0.095300786 0.088300064 0.04856402 -0.033076357 -0.039070845
-0.013305922 0.06224618 -0.011816855 -0.19680344 0.10448835 0.095329985 -0.15642212 -0.1405811
-0.059878334 -0.21100418 0.15032613 0.20811987 -0.16660747 0.09055319 -0.048161358 -0.12813582
0.03402033 0.19739136 0.042576212 -0.009149037 -0.07357153 -0.05732836 0.0697023 -0.030302154
-0.048936766 0.08509189 0.037769396 0.046070855 0.113455065 -0.03577567 -0.1348891 -0.09975266
-0.07031779 -0.12684281 0.05198984 -0.1550687 -0.19105053 -0.026273796 0.050835103 0.0745726
0.009009119 0.048767425 0.037558366 0.011925284 0.014140067 -0.08853311 0.019722816 0.0020758093
0.118609905 -0.09511152 -0.07047583 0.11815367 0.11526885 0.14381121 0.05008682 0.029773833
0.027139949 -0.15812865 0.18662037 0.2991059 0.029245434 -0.16468269 0.012900732 -0.14042293
0.029466825 -0.16971661 -0.064226374 -0.16060503 -0.20366257 -0.1175578 0.050462738 -0.061982173
0.044009216 0.05837169 0.12382015 -0.029511264 0.10130826 0.1854612 0.14742707 0.1889301
0.20689799 -0.07748967 -0.03192883 -0.058277257 0.012194902 -0.057387155 -0.16169827 -0.0036013245
0.05497722 0.034386113 0.117082156 0.014225822 -0.0048438716 0.021036623 0.0053713005 -0.14205386
-0.13567273 -0.12879547 0.010028914 0.0011413434 -0.06138762 -0.1149891 -0.121080585 -0.22183579
00000000: 06f1 3e3e 61c7 473e 40e4 fc3c 9ecb 4f3e
00000010: ac03 b23e 1436 193e 5167 4dbd 7432 7b3d
00000020: 4e37 eebd c6e2 d7bd 0ea0 26bd b3ac d9bd
00000030: 22f5 debd c07d 37be 7075 e3bd 7658 cdbd
00000040: 4f9d 35bd 6cdd 85bd f64d 62ba 5d95 f5bc
00000050: 1bc5 69bd 06f9 40be 60b0 bfbd a3db d1bd
00000060: eecf 4abd 5b7b c03c cd40 babc dec5 2a3e
00000070: 0b5a 283e 364a 173e 634e c33b fa9a a43c
00000080: 8f73 513d 1fa8 313d fff9 fb3d 3274 093e
00000090: 72f8 023d 12a8 4bbd 2423 5cbd 32c2 90bd
000000a0: 807c 09bd a391 80bc 5597 24be 48cb 98bd
000000b0: 0529 93bd 741f 55bc f65a 92bc c8a4 eebb
000000c0: f883 063e 5341 34be e7e5 b8bd fe5c 06bd
000000d0: c950 79bd 4b31 d1bd 90d4 e43d 83c3 143e
000000e0: df3e 0a3e 3961 42be d094 11be dcfb 1dbe
000000f0: c02d dabd 332d 8fbe 5ef6 5dbe c9ab 3f3e
00000100: f021 523e e5de 943d cf98 463e ff12 2b3e
00000110: c6fe 663e 9588 47bd 9c27 403d cea6 423c
00000120: d443 0dbd ca3e f43d 35e5 303d bd23 3b3d
00000130: 4ad0 443d ce28 633d 3082 603c b979 50bd
00000140: aa69 623d 551a 3f3e ddbd 343e a500 a3bc
00000150: a314 1e3e 0444 7c3e 8060 ce3d 0ba2 0d3c
00000160: 5d38 a23d d3c9 26be e887 dc3d db5f 723c
00000170: 9e64 56bd 0f75 d43d 8c1a 90bc 3416 9c3d
00000180: eb4b 043e 41b3 113e 223a 2c3e c183 663c
00000190: 4b06 333e 0a58 c7bb 55c4 89bc 2ef0 913d
000001a0: cd98 17be b319 cc3d 75ad 53bd 5c37 c4be
000001b0: 6714 12bb c525 853d 9045 bfbd a148 b83d
000001c0: c56c 1c3e 4776 03bd ce39 c6bd 70da ac3d
000001d0: b5c2 ce3d e68e 91bd aca7 7b3d b904 9dbe
000001e0: 38c7 8dbd 1a15 debd 64de 9dbe 7351 b0bd
000001f0: edb0 48be 4afa 76be 2212 793e 6d00 153d
00000200: df2c 303e 0b30 1cbc 0eea 0cbb ddde 26bd
00000210: 9ed8 d6bc 9477 00be e4a9 29be a769 fb3d
00000220: ab64 e13d 1fe9 e13d 9425 36be e380 d7bd
00000230: 6423 c43d fbbf 3b3c 14e0 c2bc 71cd 003e
00000240: 4e31 51bd 5f7d 903d 74ef 073c 0f2d c3bd
00000250: aad6 b43d 11eb 463d 137b 07bd c008 20bd
00000260: 1501 5abc daf5 7e3d 7b9b 41bc d786 49be
00000270: fdfd d53d 5e3c c33d 1f2d 20be 7ef4 0fbe
00000280: fc42 75bd 7b11 58be 18ef 193e 601d 553e
00000290: 269b 2abe f373 b93d d844 45bd 0936 03be
000002a0: e758 0b3d f620 4a3e 6564 2e3d d8e5 15bc
000002b0: acac 96bd 24d1 6abd 14c0 8e3d 393c f8bc
000002c0: eb71 48bd a844 ae3d 15b4 1a3d cbb4 3c3d
000002d0: 215b e83d 8289 12bd 5e20 0abe 1f4b ccbd
000002e0: c602 90bd 15e3 01be 4cf3 543d 54ca 1ebe
000002f0: c0a2 43be 253c d7bc 7838 503d 85b9 983d
00000300: fc9a 133c 5ac0 473d cdd6 193d 4462 433c
00000310: bdab 673c d950 b5bd be91 a13c 4d0a 083b
00000320: c0e9 f23d d4c9 c2bd a255 90bd 8dfa f13d
00000330: 1312 ec3d 3f43 133e d627 4d3d 41e8 f33c
00000340: 9954 de3c 7aec 21be 6919 3f3e 6924 993e
00000350: 1f94 ef3c 94a2 28be 985d 533c 07cb 0fbe
00000360: 6964 f13c 31ca 2dbe 1e89 83bd a575 24be
00000370: ec8c 50be 25c2 f0bd 04b2 4e3d 05e1 7dbd
00000380: 0243 343d 2717 6f3d 6b95 fd3d 9bc1 f1bc
00000390: b47a cf3d 8ae9 3d3e 1ff7 163e e476 413e
000003a0: 11dd 533e e7b2 9ebd cec7 02bd 22b4 6ebd
000003b0: 20cd 473c cb0e 6bbd 3b94 25be 3304 6cbb
000003c0: cb2f 613d 74d8 0c3d c5c8 ef3d 6c13 693c
000003d0: 57b9 9ebb ff54 ac3c bc01 b03b 9176 11be
000003e0: cbed 0abe f6e2 03be 5050 243c 2199 953a
000003f0: 9671 7bbd 687f ebbd 19f9 f7bd ec28 63be

conv_layers.2.conv.bias f4 [48]
-0.36191553 -0.34688088 -0.30537045 -0.22676247 -0.1579112 -0.3738436 -0.19480401 -0.27822885
-0.3327094 -0.47527206 -0.3486068 -0.2772468 -0.016257321 -0.0034914843 -0.11923057 -0.08200685
-0.12356366 -0.22384942 -0.16938664 -0.4476697 -0.08725099 -0.27252322 -0.14985994 -0.12355406
-0.22075203 -0.19225037 -0.12324356 -0.19636366 -0.13828236 -0.3321429 -0.20786206 -0.25172374
-0.14557025 -0.11728436 -0.58915293 -0.36594403 -0.04991504 -0.2414385 -0.4679729 -0.10447405
-0.20082693 -0.14987104 -0.3706227 -0.25591543 -0.2559462 -0.35618183 -0.21093 -0.26370668
00000000: fe4c b9be 5f9a b1be 8459 9cbe 6c34 68be
00000010: 79b3 21be 6e68 bfbe b47a 47be 0374 8ebe
00000020: e358 aabe dc56 f3be 977c b2be 4bf3 8dbe
00000030: 132e 85bc 63d1 64bb 282f f4bd 35f3 a7bd
00000040: f20e fdbd c838 65be b173 2dbe f734 e5be
00000050: a6b0 b2bd 2a88 8bbe e274 19be e909 fdbd
00000060: d20c 62be 48dd 44be 1f67 fcbd 8e13 49be
00000070: e499 0dbe a20e aabe cbd9 54be efe1 80be
00000080: 5e10 15be c832 f0bd bad2 16bf 045d bbbe
00000090: b773 4cbd a73b 77be 259a efbe 7ef6 d5bd
000000a0: 93a5 4dbe cb77 19be 42c2 bdbe 5907 83be
000000b0: 610b 83be 775d b6be 09fe 57be 9004 87be

conv_layers.2.bn.weight f4 [48]
0.87339526 0.8118994 0.87552273 0.91419125 0.80285555 0.80214506 0.87565255 0.6556654
0.7871532 0.76813614 0.9392902 0.87011456 0.83463407 0.6277977 0.81521356 0.91932416
0.9105643 0.83795565 0.7977068 0.9725812 0.7865407 0.66606677 0.9838903 0.710818
0.89622474 0.9075926 0.75956976 0.7621371 0.88642293 0.9613478 0.78029925 0.7722198
0.8145758 0.78623766 0.83943325 0.8883015 0.8324167 0.9520397 0.7975575 0.73736244
0.8357916 0.7927228 0.78231126 0.7853747 0.87386924 0.97404265 0.9394199 0.77209455
00000000: d596 5f3f a4d8 4f3f 4222 603f 7008 6a3f
00000010: f187 4d3f 6159 4d3f c42a 603f b0d9 273f
00000020: df82 493f 92a4 443f 5375 703f d4bf 5e3f
00000030: 94aa 553f 5ab7 203f d6b1 503f d458 6b3f
00000040: be1a 693f 4384 563f 8336 4c3f 15fb 783f
00000050: bb5a 493f 5a83 2a3f 3ce0 7b3f 2bf8 353f
00000060: fc6e 653f fd57 683f 2a73 423f 6b1b 433f
00000070: 9dec 623f e41a 763f b1c1 473f 32b0 453f
00000080: 0a88 503f df46 493f 19e5 563f ba67 633f
00000090: 4319 553f e0b8 733f ba2c 4c3f c9c3 3c3f
000000a0: 70f6 553f e2ef 4a3f 8d45 483f 510e 493f
000000b0: e5b5 5f3f dc5a 793f d37d 703f fda7 453f

conv_layers.2.bn.bias f4 [48]
-0.0398366 -0.086865164 -0.055486772 0.10265916 0.12178433 0.16937271 0.02969873 0.06019435
0.15992835 -0.059981335 0.26657408 -0.1494891 0.121145055 -0.08194691 0.0502144 -0.07847501
-0.03220876 0.16360675 0.052379496 0.10549925 0.06788687 0.20706071 0.006610721 0.0852126
0.085407585 0.13082586 0.04781961 0.0011162083 -0.047760036 0.04502454 0.0370027 0.08339659
0.14315657 -0.095891565 0.13913353 0.33970016 0.0325158 0.20046389 -0.04960028 -0.09026886
0.20295879 0.04290849 -0.09933998 0.12960838 0.14240025 0.17904639 0.11667172 0.24754807
00000000: b42b 23bd 5de6 b1bd 1946 63bd f73e d23d
00000010: 106a f93d 0a70 2d3e c04a f33c 5a8e 763d
00000020: 42c4 233e fdae 75bd 667c 883e ac13 19be
00000030: e61a f83d c8d3 a7bd 9dad 4d3d 82b7 a0bd
00000040: 55ed 03bd 8788 273e e28b 563d fe0f d83d
00000050: 4508 8b3d b907 543e bf9e d83b f283 ae3d
00000060: 2cea ae3d 37f7 053e 7fde 433d bc4d 923a
00000070: 07a0 43bd a76b 383d 2590 173d d5cb aa3d
00000080: a397 123e cc62 c4bd 0579 0e3e 2eed ad3e
00000090: 4a2f 053d 6846 4d3e aa29 4bbd e1de b8bd
000000a0: 6ed4 4f3e d0c0 2f3d c272 cbbd 0fb8 043e
000000b0: 5fd1 113e f057 373e 95f1 ee3d 3e7d 7d3e

conv_layers.2.bn.running_mean f4 [48]
3.4503388 0.6975948 0.53859854 0.42242503 0.6266001 0.61955595 0.58547425 0.90037495
2.191109 0.7378336 1.1092422 0.6282249 0.77431464 3.016017 0.6278473 2.134777
1.1627945 0.39864287 0.5653243 0.2627426 1.6823947 0.67117625 0.86783516 1.0589383
0.041701853 0.059772007 0.74811697 1.0432894 3.9881775 0.6043893 1.7502996 1.6986997
0.8707629 1.8440336 1.3864732 2.7229266 2.5585914 1.8860303 1.242198 1.3531578
0.69159234 2.6190429 2.1343796 0.40286124 0.55422044 0.10072969 1.1699095 1.0479175
00000000: 5ad2 5c40 9395 323f 98e1 093f 1848 d83e
00000010: dd68 203f 389b 1e3f a4e1 153f f97e 663f
00000020: 213b 0c40 aae2 3c3f a6fb 8d3f 59d3 203f
00000030: 7c39 463f 6c06 4140 9aba 203f 30a0 0840
00000040: 73d6 943f eb1a cc3e 18b9 103f 3386 863e
00000050: b658 d73f 35d2 2b3f 722a 5e3f 4a8b 873f
00000060: 90cf 2a3d 7ed3 743d 9884 3f3f 828a 853f
00000070: 4d3e 7f40 42b9 1a3f d109 e03f fe6e d93f
00000080: 51ea 5e3f 4b09 ec3f f477 b13f 6e44 2e40
00000090: f6bf 2340 7169 f13f 5800 9f3f 4634 ad3f
000000a0: 320c 313f 669e 2740 ad99 0840 d443 ce3e
000000b0: 64e1 0d3f 5e4b ce3d 98bf 953f 2922 863f

conv_layers.2.bn.running_var f4 [48]
10.787596 1.973045 1.6951798 0.87971765 1.5774332 2.4652088 1.7037413 1.9767706
8.002376 2.6760542 3.907351 1.8017788 2.124211 3.6952085 1.434555 5.56901
2.5508397 0.88519114 1.6649208 0.73330516 5.7980185 1.3409913 1.9139876 2.4288309
0.071723774 0.22740781 2.007168 2.0668523 5.603088 1.7178683 3.7686713 2.9791887
2.2911916 5.4659767 5.1135077 8.554216 3.3676744 3.7499938 3.3109384 3.0752046
3.0689483 5.250359 5.402566 1.2654377 1.2890705 0.2890134 4.8415956 2.736432
00000000: fe99 2c41 bd8c fc3f a7fb d83f 2d35 613f
00000010: 55e9 c93f fbc5 1d40 3214 da3f d206 fd3f
00000020: bb09 0041 7944 2b40 0a12 7a40 b0a0 e63f
00000030: 13f3 0740 4c7e 6c40 809f b73f 5435 b240
00000040: f540 2340 e39b 623f 201c d53f e3b9 3b3f
00000050: 5e89 b940 9aa5 ab3f 8cfd f43f f771 1b40
00000060: eae3 923d 98dd 683e 7175 0040 4f47 0440
00000070: 7f4c b340 1ce3 db3f e931 7140 07ab 3e40
00000080: e2a2 1240 48e9 ae40 dba1 a340 12de 0841
00000090: fa87 5740 e6ff 6f40 6ae6 5340 27d0 4440
000000a0: a669 4440 f102 a840 d2e1 ac40 ddf9 a13f
000000b0: 4300 a53f 90f9 933e 5aee 9a40 b421 2f40
