frameID/prod_net/init_model_classifier_conv.pt (torch, 180582 bytes, 18 tensors)

conv_layers.0.conv.weight f4 [48, 3, 3, 3]
00000000: 5301 b83d 44fc 2a3d ffa7 703d 1225 63bd
00000010: 9d80 ecbd 3042 5cbe c8c7 553e 250a 553e
00000020: dd69 293e 0e35 33be 86c0 67bd 4f69 2ebe
00000030: c872 09be 52cd 80be e5a7 60bd 00de 17be
00000040: 4304 803d c698 f23d 8d88 16bd fcc6 94bd
00000050: 3d72 18be 3b0f 04be 54d1 06be 7272 7fbe
00000060: ca19 c43d c5a4 4e3e 9de2 cb3d 3b67 3ebe
00000070: 8338 1abd d32f d5bd a147 4c3d f67b 5fbe
00000080: e9ad 94be 5cda 6c3e 392a 413e ec77 a0bd
00000090: 84e6 d13c 2561 49bd 9d9a bf3d 8e5a 803d
000000a0: cc4c b1bd 4e0a 97bb bcf7 9c3d 9bdf 873e
000000b0: d4a9 b93d c231 8dbd d052 f4bd 8a0c 8fbd
000000c0: 1656 8fbd b55e c63b 2d7c 8fbe 3303 543e
000000d0: 00b5 543e 9625 e03d 6885 21be ae63 37be
000000e0: 70fc 1abe 01da 36be 7ff3 a2bd 1c2a 98bb
000000f0: 0889 a4bc e58a 39bd 61a4 f33c 64d7 ddbc
00000100: 9fe6 a03d ceee 963d 9b79 5abe 075a 473e
00000110: 6061 1b3e 9226 153e 5fad 46bd 14b5 a63d
00000120: 29de 403e 774b 333e 5653 1d3e 7993 f6bd
00000130: 6e11 bb3e 3656 ba3e a8db 403d 5608 1c3e
00000140: cfb6 403d 8b81 e23c d721 c4bd ee48 16be
00000150: d4e9 513e e215 ce3c 6caf a13e 921d 873d
00000160: 8441 b63d d51c 0abb d5d8 22be e01a 36be
00000170: 6d45 8e3d b39f bfbd c53f 2d3e a1ef 0b3e
00000180: 34ce 13be b2ab a2bd 14d0 a03d 4883 9bbb
00000190: b4ef 0b3d c806 193e 48dc ae3e d905 923e
000001a0: 663e ba3e cd40 17be 77ad 33be 96bb dfbc
000001b0: 053c 60be 22b6 1cbe 0036 1a3e 9e1c 5ebe
000001c0: 617b 38be 5f64 113e 98ff 32be 633f 80be
000001d0: 784b 583d 3ec6 053d 19bf f4bc febe 7d3e
000001e0: 707e 00be 4ee2 90bc 7cf9 0d3c 5f73 afbd
000001f0: 20c3 28be de20 543e b9cd 70bd 7bb2 843d
00000200: 2c4f 073d 959b 043d 8c9c 68be be48 f83d
00000210: fce6 9bbc d8c9 77be c1bb 693d aa25 a4bd
00000220: 3760 a8bd 9455 6bbd 138e 92bc d834 153c
00000230: cb80 033e 5e08 22be a07f 15be 5f37 8d3c
00000240: 9349 043e 5f0a 743d ac5b 3c3e 8717 d93e
00000250: 4a99 f33e 5346 fa3e 5b3a 1d3d 6f18 4e3e
00000260: da9c 3cbd d0e4 c5bd 495c c2bc 1129 b1bc
00000270: 1796 d53d 0509 dc3c fad3 6ebd 4f6a be3d
00000280: 4b60 3bbb 29ba 53bd 6425 db3d 629c 5a3e
00000290: dca1 893e 4414 ef3a b510 e4bc 7d76 17be
000002a0: 2d58 c43c 95f1 76bc be2a 113d fe7b 0dbe
000002b0: 5ed2 293d 0dd9 123e 4fc7 16be f985 7dbe
000002c0: 0e2b 95be bdc1 ffbd 684b 073d d770 f8bd
000002d0: 5b18 b4bd f816 8dbc 451d 993e 531f dcbd
000002e0: 8325 8bbd 0bc5 e8bd b439 02be 0eac 93bd
000002f0: 0f25 023d 6901 7a3d 3abb 97bd 2ce3 febd
00000300: e62e d7bd 578e a9bd 34eb ab3d 24fd c13d
00000310: 9a86 ebbd a5dd debd 84b4 adbd f4b2 6dbe
00000320: b9c7 04be bc43 babd 59d6 94bd 01cc 7939
00000330: 262a 49bc 95aa e83c 01e4 51bd 2ff5 43be
00000340: ed20 a23d 500a b4bc d7cc 4bbd 7b60 1dbe
00000350: 2195 63be 97a6 33be 4671 6b3d 55c5 45be
00000360: 469a d13c 9f41 a7bd 8688 033e 3ae0 093e
00000370: 02e7 1c3e 4ea2 c73d 8c32 fb3d 3e9a f639
00000380: 5ba9 5fbd 0e6b 71be 45cc 22be 2e80 44ba
00000390: b754 1fbe d35d 13be 898b d2bd d099 3fbe
000003a0: c519 15be 7781 15be 5f8e 0d3e 9c52 be3d
000003b0: d219 933e 3836 133e 5af2 3e3e 1694 0ebd
000003c0: e70c fe3d 670b 5f3e af1b 08bd 4926 b73c
000003d0: 2583 fbbc db3a 12be adaf e23d b396 423e
000003e0: c697 b3bd 0797 00bd d0d1 343e fd05 063d
000003f0: eb8d 393e 9315 2ebe 3b90 5bbe 123e 85bd
0.089846276 0.041744485 0.058753964 -0.055455275 -0.115479685 -0.21509624 0.20876992 0.20804651
0.1654429 -0.17500708 -0.05658009 -0.1703236 -0.13422692 -0.25156647 -0.054847617 -0.1483078
0.06250813 0.118455455 -0.03675132 -0.07264516 -0.14887328 -0.12896435 -0.1316579 -0.24946001
0.095752314 0.20180042 0.099553324 -0.18594067 -0.03765155 -0.10409512 0.049873 -0.21824631
-0.29038933 0.23130172 0.18863763 -0.07835373 0.025622614 -0.04916491 0.09355662 0.06267272
-0.08657226 -0.0046093827 0.07664439 0.26537785 0.09065595 -0.06894256 -0.11929858 -0.069848135
-0.069988415 0.0060537704 -0.28024426 0.20704345 0.20772171 0.10944669 -0.15773547 -0.17909119
-0.1513536 -0.178566 -0.079565994 -0.0046436917 -0.020084873 -0.045298476 0.029741468 -0.027080245
0.078564875 0.07369767 -0.21335451 0.19467936 0.15173864 0.14565495 -0.048505183 0.08140007
0.18834747 0.17509256 0.15363821 -0.12039847 0.36536735 0.363939 0.04708448 0.15237555
0.04704934 0.027649662 -0.09576767 -0.14676258 0.20499355 0.025156919 0.3157915 0.06597437
0.08899215 -0.0021074314 -0.15903027 -0.1778369 0.06946836 -0.09356632 0.16918857 0.1366563
-0.14434129 -0.079429045 0.07852188 -0.0047458746 0.034164146 0.14943993 0.34152436 0.28520086
0.3637573 -0.14770813 -0.1754664 -0.027311128 -0.21897896 -0.15303853 0.15059662 -0.21690604
-0.18015815 0.14198445 -0.17480314 -0.2504836 0.052806348 0.03265976 -0.029876279 0.24779889
-0.12548232 -0.017686035 0.008665439 -0.08566927 -0.16480684 0.20715663 -0.058789942 0.06479355
0.03303449 0.032374937 -0.22715968 0.121232495 -0.01903104 -0.24198091 0.05706382 -0.08014996
-0.082214765 -0.05745466 -0.017890012 0.009106837 0.128421 -0.15823504 -0.14599466 0.017238317
0.12918691 0.059580203 0.18394345 0.42400762 0.47577888 0.48881778 0.03838573 0.20126508
-0.046048023 -0.09662783 -0.023725646 -0.021626027 0.10429018 0.02685977 -0.058307625 0.092976205
-0.002859133 -0.051691208 0.10700491 0.21348718 0.268813 0.0018240293 -0.027839998 -0.14791293
0.023967827 -0.015072246 0.035441153 -0.1381683 0.041460387 0.14340611 -0.14724468 -0.24758138
-0.2913441 -0.124881245 0.033030897 -0.121308975 -0.08793708 -0.017222866 0.29905143 -0.10748162
-0.06794264 -0.11365708 -0.12717324 -0.07210551 0.031773623 0.0610365 -0.074087575 -0.12445673
-0.10506992 -0.08279102 0.08394471 0.09472111 -0.115002826 -0.10882119 -0.08481696 -0.23212796
-0.12966813 -0.090949506 -0.07267446 0.00023822488 -0.012278115 0.028401652 -0.051242832 -0.19136499
0.07916436 -0.021977574 -0.049755897 -0.15368836 -0.22224857 -0.17544018 0.057481073 -0.19313557
0.025586259 -0.08166813 0.12845048 0.13464442 0.15322497 0.09747754 0.122655004 0.00047035696
-0.05460487 -0.23575994 -0.15898235 -0.0007495907 -0.1555966 -0.1439126 -0.102805205 -0.18711019
-0.14560612 -0.14600168 0.13823842 0.092931 0.28730637 0.14376152 0.18647137 -0.034809195
0.12404805 0.21781693 -0.033229526 0.022357123 -0.030702183 -0.14280264 0.11068664 0.190028
-0.08769183 -0.03139403 0.17658162 0.032720555 0.18120544 -0.17000417 -0.21441738 -0.065059796

conv_layers.0.conv.bias f4 [48]
00000000: a503 073d f838 213e 1658 a2bd e85a 663e
00000010: 025c 433e cb11 8c3c 07a3 0c3d a9ee 5f3d
00000020: c63e d0bd 1b1f db3c f168 38be bc25 cc3d
00000030: 84f8 0e3e 2540 513e b94a 8b3e 4bf7 df3d
00000040: 4275 9e3d a542 fbbd 3d49 86be ccf3 893e
00000050: d75e 59bd 0225 923e 11e4 743e f0e4 6b3d
00000060: 7b99 16be 13f8 103e e2fc 3b3e 119e 85be
00000070: 1798 0fbe ce95 92bd 39f4 463e 3f2d d03b
00000080: b9e2 c43d 821f 123e 3227 aa3d c06b 5abd
00000090: 593a 86be ee55 0bbe 2021 7ebe dc52 95bd
000000a0: 7c4c fbbc fce2 763d 5438 89bd 8bdd 263e
000000b0: c890 07bd 4539 a7bd f969 55bd 596b 9ebd
0.03296246 0.15744388 -0.07926957 0.22495615 0.19078067 0.017098328 0.034335162 0.054670963
-0.10168223 0.02674823 -0.18008782 0.09968135 0.13961989 0.20434625 0.27205446 0.10935839
0.07737209 -0.12268571 -0.2622775 0.26943815 -0.053068962 0.2854386 0.23915125 0.05759138
-0.14706986 0.14157133 0.18358186 -0.26097158 -0.14022861 -0.07157479 0.19429101 0.00635305
0.096135564 0.14269832 0.08308257 -0.053325415 -0.2621639 -0.13606998 -0.24817324 -0.07291195
-0.030676119 0.060275063 -0.06700197 0.1629545 -0.03309706 -0.0816522 -0.052103017 -0.07735319

conv_layers.0.bn.weight f4 [48]
00000000: df32 1c3f b11c 4a3f 52cd 2e3f f198 773f
00000010: d70b 953f e5c3 3f3f fa02 873f 42b6 1e3f
00000020: 905f 4d3f ae66 353f 0a0a 503f bfd4 143f
00000030: ab6a 523f 415e 493f ef41 123f 7669 2e3f
00000040: 65b4 163f d07c 513f 9b91 833f 5e9e 753f
00000050: 2b6a 533f da61 8d3f 6699 3f3f 2b80 243f
00000060: 25f1 4e3f 509e 3f3f e85e 333f e8d0 843f
00000070: 6813 273f cc9a 463f 58d1 4a3f d994 363f
00000080: 6f77 543f d53f 8b3f 7834 803f ea7e 1a3f
00000090: c276 2f3f ba3d 2a3f 1a9c 473f 2bc7 353f
000000a0: d9b2 2c3f bc93 483f 4ec5 503f 6c45 3f3f
000000b0: e789 203f 8cbc 293f 32d7 cf3e 331d 243f
0.61015123 0.7895003 0.68282044 0.96717745 1.1644238 0.74908286 1.0547783 0.61996853
0.8022394 0.708598 0.8126532 0.58137125 0.8219401 0.78659445 0.57131857 0.6812967
0.5886901 0.81831074 1.027881 0.95944774 0.82583874 1.1045487 0.7484344 0.6425807
0.8083671 0.7485094 0.7006669 1.0376253 0.65263987 0.7757995 0.79225683 0.71320873
0.8299474 1.0878855 1.0016012 0.60349905 0.68540585 0.6650044 0.7797257 0.7100703
0.674604 0.78350425 0.81551063 0.74715304 0.6271042 0.66303325 0.40593868 0.64107054

conv_layers.0.bn.bias f4 [48]
00000000: 8980 053e f1df 6d3e ce0c 533d 478e c3bd
00000010: e091 ba3d f07a e9bd 01ad 813e 6e12 5c3d
00000020: 5e2a 5b3e f69a f63d 8ecc 643e dd29 573e
00000030: 9a33 603b 5e79 463e a67e f93d ef18 393e
00000040: 214d 9a3b bba3 983e 7f8c 473e d924 7a3e
00000050: 9803 783d 10e4 aa3e 42e6 d83d c9af 813d
00000060: db3f 95be 837d 8c3e 8792 e03c e395 a63e
00000070: 50c7 fcbd e210 503d d507 b53c 3ac1 5ebe
00000080: 9cb3 593e 4c08 c33e f89b 5b3e 9715 383d
00000090: f9a4 923e b2d5 0b3e 7676 963e 580f adbc
000000a0: 61b6 21be 52d4 5c3e 18d9 7bbe 5d3d 373e
000000b0: 4dd2 423d 3cf1 9c3d 4846 e93d e303 663c
0.13037314 0.23229958 0.051525883 -0.095486216 0.09109855 -0.114004016 0.25327304 0.053728513
0.2140288 0.12041275 0.22343656 0.21012063 0.0034210444 0.19382235 0.121823594 0.18075918
0.0047089015 0.29812416 0.19487189 0.24428119 0.060550302 0.33377123 0.10590793 0.063323565
-0.2915028 0.27439508 0.02741362 0.3253623 -0.12342703 0.05079735 0.022098461 -0.21753398
0.21259922 0.38092268 0.21446216 0.044942465 0.2864149 0.13655737 0.29387254 -0.02112548
-0.15792228 0.21565369 -0.24594533 0.17894502 0.04756384 0.07663199 0.11390358 0.014039013

conv_layers.0.bn.running_mean f4 [48]
00000000: d6ea 183c f807 863e 58c1 b73e ab7f 3b3f
00000010: ce6f ce3c 8525 713f bd0f 4d3c 79d5 7839
00000020: 92c6 183d 3961 623e 0400 0000 728b 723e
00000030: c500 6b3e 557f 2d3e fcb6 e53e 1dca 723c
00000040: a12a 933e 0400 0000 d725 3c3b 61a6 753c
00000050: fe57 262f 3159 df3c 89f3 e03e d331 8339
00000060: 0400 0000 2d25 8c3e 0ffe f23e 97fa 8b3c
00000070: b4a6 0b3f 9241 c93e fd97 023f f3d4 953f
00000080: e661 203e f43c 443e c8aa b23e e176 a335
00000090: 48e5 983d 5714 973c de1c f33b 0400 0000
000000a0: 0394 0a3f 657f 8e3e 0400 0000 bd28 493e
000000b0: 4d09 9332 3e1f a73e 397b 073b badb d33e
0.009333333 0.26177955 0.35889697 0.7324168 0.025199797 0.94197875 0.012515959 0.00023730648
0.037298746 0.221074 6e-45 0.23686007 0.22949512 0.16943105 0.44866168 0.014818695
0.2874346 6e-45 0.0028709078 0.014993281 1.5128873e-10 0.02726421 0.43935803 0.0002502339
6e-45 0.27372113 0.47459456 0.017087264 0.54551244 0.3930784 0.51013166 1.1705612
0.15662345 0.19163877 0.3489592 1.2179045e-06 0.07465607 0.018442316 0.0074192127 6e-45
0.541321 0.2783157 6e-45 0.19644447 1.7117282e-08 0.32641023 0.0020672812 0.41378576

conv_layers.0.bn.running_var f4 [48]
00000000: 5ab0 043b 754c 953c 8a5b 233d 8e92 5c3d
00000010: cd73 b83b 9dba 533d 0a7f 333b b74b 5737
00000020: e718 033c 5ba9 a13c 0400 0000 4d1d 0f3d
00000030: c23c dc3b e544 7a3c d20a 9c3c 1f02 4f3b
00000040: d121 5f3c 0400 0000 9bfc 063a 6d4d 003b
00000050: 677a 5b2c e997 993b 47f1 653c 8df8 6e37
00000060: 0400 0000 1e66 5f3c dfc3 e23c 226b 5c3b
00000070: e2da 833d 55a4 893d df01 043d a26a 0f3e
00000080: 4375 c33c 1c21 b23c 8fe4 ce3c d670 b533
00000090: a377 ae3c fc4c 903b 386e c83a 0400 0000
000000a0: a8b2 503d 0e64 ea3c 0400 0000 5230 503b
000000b0: 7667 1b30 dc7a 513d ac59 a939 01dc 9c3d
0.0020246715 0.018224934 0.03988222 0.053850703 0.005629039 0.05169164 0.0027388954 1.2832627e-05
0.008001543 0.019734075 6e-45 0.034940053 0.00672111 0.015275215 0.019048128 0.0031586958
0.013618902 6e-45 0.00051493355 0.00195774 3.1189719e-12 0.0046872986 0.014034576 1.4243776e-05
6e-45 0.0136351865 0.02768129 0.0033633192 0.06438233 0.06720797 0.032228347 0.14005521
0.023859626 0.021744303 0.02525547 8.448994e-08 0.021297282 0.0044037085 0.0015291637 6e-45
0.05095163 0.028612163 6e-45 0.0031767082 5.65357e-10 0.05114256 0.00032301003 0.0765915

conv_layers.1.conv.weight f4 [48, 48, 3, 3]
00000000: 0f0d a33d 44ce 0c3e f135 223e 3b89 c6bd
00000010: 2447 d5bc 8332 bd3d de36 6b3d ee8d ec3d
00000020: b000 023e 97ac d2bd d3bc 1e3d 943c 123d
00000030: 5e66 82be cd01 11bd 9315 bebd 86ef 56bd
00000040: b121 a33d 93d5 9abd fe1a 983b c675 db3d
00000050: 9486 f63d 6b68 8ebd 7ff4 c6bc ac8a 613c
00000060: 22e1 07bd 6fad 57bd e267 343d cc97 dc3d
00000070: bd7c 653e 9979 7d3e a5e0 7b3d a6c4 503d
00000080: 9752 833d ef8e 0e3e c6ca c23d fb31 683e
00000090: c3df 7e3e 9d57 dc3d 844e 0e3e da3a 7e3e
000000a0: 90a3 cbbc 7330 4d3e 7f78 163e eaf3 e53c
000000b0: 7ea5 183e 7837 4dbd f7b0 cb3b c424 efbc
000000c0: 29af fbbd c697 1bbe 542c 7dbe 539c 9ebd
000000d0: 972b a6bd c5f3 7dbd 18d4 1ebe 52a2 cf3d
000000e0: d2ed 2e3e 47cf 223e 0cf6 673e 626e d43d
000000f0: db96 d9bd 2af4 c73d fcd6 3f3d d98e 53bd
00000100: 81e6 10bd 7153 72bd 6b6f 18bd 40c4 19bd
00000110: d143 5cbd 8c82 53bd bbcd 9c3c e4cb 543c
00000120: fe5e a33c 5eda 563e a82a 103e 4c0f 493b
00000130: 9132 0c3e 427e 30bd 45cb 9abd a532 7cbd
00000140: 9eaa 68bd 4dda 21bd bfa5 403e bad8 bb3d
00000150: 9221 1f3c d893 4d3e 6880 d43d abee 113d
00000160: 8763 723e ea83 793c 8d51 c4bd 1524 e9bd
00000170: e0af dfbd 877d fdbd 1996 e9bd fdc5 98bd
00000180: 1c7f 97bd 5140 b6bd edd8 88bd a602 8cbd
00000190: bdda 303e b7fd 4b3e 8aa3 97bc 7614 a53d
000001a0: 04db 2d3d e1a5 0f3d e88f 7a3c ad67 4e3e
000001b0: c9e1 5ebe 789e ff3d cd36 a8bd d0bc 5abe
000001c0: 3d0f b53d 76c5 1dbe 433e 5dbe da9d bb3d
000001d0: 5371 9cbe 9e04 953d 9e47 bc3c 45c3 793d
000001e0: 3b2d 75bd d202 b03d a113 223d 413f b83a
000001f0: f21c eb3d d378 e43b 8266 f9bd 1f16 d53d
00000200: 8115 b1bd 9ed1 82bd 6bfc be3d 43d0 60bd
00000210: b337 68be 7489 0b3d 4ff4 02be cc5e c5bc
00000220: 6af3 11bd 4645 1c3d 7c05 96bd e1a5 783d
00000230: c6b9 323e e209 133e 2250 6e3c fa66 983d
00000240: eea9 6bbd 7052 cd3b a648 18bd 8f22 b1bd
00000250: b069 47be d454 0cbe 01a8 4c3c 8840 483c
00000260: 9bb7 223d b4fb 19be d798 36be 5304 1bbe
00000270: 86cd 0abe c90b 16be abcd 2fbe e1ef 9cbd
00000280: ef2a 16be a6e9 bfbd 1f84 02bd f143 503e
00000290: cb0f 143e c6f0 59be f0ee 4f3d 3df1 3bbc
000002a0: ed1b 05be 12a2 3ebd 23ad 11be 4ccb 2abd
000002b0: b3a2 0dbe 5f1f 97bd 610c 15bc b356 093d
000002c0: 7212 183e f527 ab3c 0137 733d ab0b 063e
000002d0: 7312 0d3c 5bce 0dbd 5aae f7bc a427 41bc
000002e0: 0123 7bbd 1ea5 b4bd 6183 ca3c e990 79bb
000002f0: f7f5 9fbd bbe7 16bd df1c b2bd 1f2b 7a3d
00000300: 41c7 54bd 214e 533d 520a 263e 4f80 be3c
00000310: b85e 2f3d c899 0d3d e86e 49bd fd24 7d3d
00000320: 5a84 8db9 0e3e 4cbe 4d5a ecbd c916 76be
00000330: 93de 9abd d58d b3bc 7aae 8dbe 0ddb ac3b
00000340: e6a3 f2bc ef1c 23bd 089f a23c 1cc5 cebc
00000350: 36d2 4dbd deba 663a 3ac7 91bc aaa6 d5bb
00000360: 419e e33d e89d d33d 7631 cf3d 7674 fe3d
00000370: 109d 033e 7850 323e 9d3a 023e 0038 ba3d
00000380: fcd7 fc3d 54f6 b53d cca1 0e3e 45a1 1a3e
00000390: 0bbb 81be c5d9 2a3d 4c72 a5bb 1448 563c
000003a0: 8511 eb3d 568f 563b 00f5 a63d a82b 153e
000003b0: 72f3 1b3c 8f8e d0bd 9078 95bd 6cad 643d
000003c0: 6ef6 ab3d df33 813d ffd5 8b3e 3516 de3d
000003d0: 7de8 2f3e 5f7b 883e 5d0d 00be 292e 58be
000003e0: 5a70 14bd 07d3 4ebd 55de 25be 6094 48be
000003f0: ba0d fc3c afd4 023e 7f2c 2f3e 686b e03c
0.07961475 0.13750559 0.1584089 -0.096941434 -0.026034899 0.0923815 0.057425372 0.115505084
0.12695575 -0.10286825 0.038754296 0.035702303 -0.25468725 -0.035402108 -0.09281459 -0.05247452
0.079654105 -0.07560267 0.0046418896 0.10715823 0.120373875 -0.0695351 -0.024286507 0.013765972
-0.033173688 -0.052655634 0.044044383 0.107711405 0.22410865 0.24753417 0.061493535 0.05096879
0.06412237 0.13921712 0.09511332 0.22675316 0.24890046 0.107588984 0.13897139 0.24827138
-0.024858266 0.20038013 0.14694403 0.028070409 0.1490688 -0.050101727 0.006216164 -0.029192336
-0.122892685 -0.15194616 -0.24723941 -0.0774466 -0.08113783 -0.062000055 -0.15510595 0.10138382
0.17082909 0.15899383 0.22652453 0.10372616 -0.106244765 0.097633675 0.046835884 -0.051649902
-0.035376076 -0.059161607 -0.03721563 -0.037540674 -0.053775612 -0.05163817 0.019141069 0.012988064
0.019942757 0.20981738 0.14078772 0.0030679284 0.13691165 -0.04308916 -0.07558302 -0.061571736
-0.05680334 -0.03951483 0.18813227 0.09172197 0.009712594 0.20075929 0.10376054 0.035628002
0.23670779 0.015229205 -0.09585867 -0.11383835 -0.10922217 -0.12377458 -0.11405582 -0.07459638
-0.07397291 -0.08898986 -0.06682 -0.06836443 0.17270942 0.19921003 -0.018510599 0.08060543
0.042445198 0.035070304 0.015293099 0.20156737 -0.21765818 0.124813974 -0.082135774 -0.21361089
0.08840797 -0.15407357 -0.21605782 0.09160967 -0.3055521 0.07276271 0.022983368 0.06097724
-0.05985759 0.08594288 0.0395695 0.0014056937 0.1148013 0.006972411 -0.12177755 0.1040461
-0.0864668 -0.063876376 0.09325489 -0.054886114 -0.22677498 0.034066632 -0.12788509 -0.024093054
-0.03563253 0.038152 -0.07325265 0.06070507 0.1745368 0.14359239 0.014545472 0.07441516
-0.057535104 0.006265931 -0.037178658 -0.0864917 -0.1947391 -0.13704234 0.012491227 0.012222417
0.03972588 -0.15037423 -0.17831741 -0.15138368 -0.13554963 -0.14652933 -0.171683 -0.07662941
-0.14664815 -0.09370737 -0.03186428 0.20338418 0.1445915 -0.21283254 0.050764978 -0.01147109
-0.12998934 -0.04654128 -0.14226203 -0.041697785 -0.13831596 -0.073790304 -0.00909719 0.03352995
0.14850786 0.020893076 0.059378628 0.13090388 0.008610356 -0.034620624 -0.030234504 -0.011789236
-0.06131268 -0.08820556 0.02472085 -0.0038080758 -0.07810586 -0.03684209 -0.08696913 0.06107628
-0.051947836 0.05158818 0.16214874 0.023254542 0.04281494 0.034570485 -0.049178034 0.061802853
-0.00026992225 -0.19945547 -0.11540661 -0.2403213 -0.07561984 -0.021918217 -0.27672178 0.0052751363
-0.029619168 -0.039822515 0.019851223 -0.025240473 -0.0502493 0.0008801649 -0.017795194 -0.006520112
0.11114169 0.103328526 0.10116856 0.12424557 0.12852883 0.17413509 0.12717672 0.090927124
0.12345883 0.08884874 0.13928908 0.15100582 -0.25338015 0.041711587 -0.0050490256 0.013078708
0.11477951 0.0032739243 0.08152199 0.14567435 0.009518491 -0.10183441 -0.07298386 0.05582945
0.08396612 0.06308722 0.27311704 0.108440794 0.17178531 0.26656625 -0.12505098 -0.21111359
-0.03623996 -0.05049422 -0.16198094 -0.1958785 0.030768264 0.12776445 0.17106818 0.027394965

conv_layers.1.conv.bias f4 [48]
00000000: f66f 2ebe dd94 083e 4e87 7dbe be7c 6abe
00000010: 4a92 89bd 83a0 f1bd dbba a7bd 77ad 9abd
00000020: 1c49 aabd eed3 3fbe 7313 21bd a2bd 35be
00000030: 83fa 863d 1f29 aabd 33c3 eb3c 6a47 4fbd
00000040: 20c5 0ebe ee44 85be 6e49 ea3c 6364 5cbc
00000050: 3702 a3bd 91f9 a4be fa72 d2bd 0b3e cbbc
00000060: bf90 5cbd a2ef 00bd 85e5 7cbe 8078 38be
00000070: d7fb 7bbe 1600 c93d bba0 edbd 242c 6e3c
00000080: 791b 7abe e3dc 4fbd df46 3abe be92 e6bd
00000090: 96d9 da3d 4796 17be b115 e2bd a6ff b6bc
000000a0: 04a2 a0bc 5e56 84be 793f 713c e65d 1fbe
000000b0: 01af 81be 17a2 2abe 2e3f 9fbe 999e 58be
-0.17034897 0.13338037 -0.24758646 -0.22899148 -0.067173555 -0.11798193 -0.08189937 -0.07552617
-0.08314726 -0.18733189 -0.03932519 -0.1774812 0.0659075 -0.083086245 0.028779602 -0.050605215
-0.13942385 -0.26029152 0.028599467 -0.013451668 -0.07959407 -0.32221654 -0.10275836 -0.024809858
-0.053848978 -0.03147853 -0.2469693 -0.18014717 -0.24607788 0.098144695 -0.116029225 0.014536891
-0.24424542 -0.050747763 -0.18191098 -0.112584576 0.106860325 -0.1480342 -0.110392936 -0.0223387
-0.019608505 -0.25847143 0.014724606 -0.15563163 -0.2532883 -0.16663395 -0.3110289 -0.2115425

conv_layers.1.bn.weight f4 [48]
00000000: 9ea8 2c3f fbdd 0f3f 5494 473f b4fd 883f
00000010: 6d96 183f 8b08 173f 2261 183f 2ee4 423f
00000020: 3478 0c3f 778c 453f c95a 343f 9966 363f
00000030: edae 5a3f 7c93 173f ee40 633f 7171 483f
00000040: c2b4 393f e2c4 3f3f 486d 4d3f 6404 443f
00000050: b7d7 673f 1baf 303f 0837 433f 010c 583f
00000060: 9bd9 5d3f 9930 593f a2f9 333f 1387 323f
00000070: 7537 553f 1eb0 253f ec7d 733f c517 573f
00000080: 5191 603f 00f8 743f 4ac4 3d3f 0472 093f
00000090: 3157 803f be62 5a3f df30 433f 9ef6 ff3e
000000a0: 1c9d 743f a1b5 2e3f 05c9 563f b829 463f
000000b0: 7db6 493f a5ec 6d3f 2e95 333f 9fe4 3b3f
0.6744479 0.5619809 0.77960706 1.0702424 0.5960453 0.5899741 0.5952321 0.76129425
0.54870915 0.7716746 0.7045103 0.712503 0.85423166 0.5920942 0.8877095 0.782981
0.7254144 0.74909794 0.80244875 0.765692 0.9056353 0.6901719 0.76255846 0.84393317
0.86660165 0.8483978 0.70302784 0.69737357 0.83287746 0.6472186 0.95114017 0.84020644
0.87721735 0.9569092 0.7412764 0.536896 1.0026609 0.8530692 0.76246446 0.4999284
0.9555223 0.68245894 0.8390048 0.7740741 0.7879408 0.92939216 0.70149505 0.73395723

conv_layers.1.bn.bias f4 [48]
00000000: 05cc 0d3f ab5f 8cbd 236d dbbc 01e1 9d3e
00000010: 9920 5dbd 7625 873d 1d36 3fbe 38a2 623e
00000020: 5529 86bc c632 f63e 01e8 ef3d af45 eb3e
00000030: e5fc ee3d 46c7 ffbd 254f 78bd 218e 773e
00000040: e883 453e ea48 e93e a4cc c63c 146f b9bd
00000050: 0982 283d c640 0c3f 79c8 843e ed42 c43e
00000060: cd26 c73b 4bec 8abc b13e fa3e 27f8 c83e
00000070: 407c 8d3e 9ab9 863e fbc3 743b 2810 6a3d
00000080: 9eb7 153f 3d1d 92bc 6f88 ca3d 0fb6 053e
00000090: f1e6 aebc 4dbb 8b3e 878d 153f aa16 4b3e
000000a0: ee91 713e 76dc 4d3e d0d4 293e 0cf3 843e
000000b0: 105e 0b3f bbcf fe3e 3a3a e73e 6513 083f
0.55389434 -0.06854185 -0.026785439 0.30835727 -0.053986166 0.06598942 -0.18672986 0.22132194
-0.01637713 0.48085612 0.11714173 0.45951602 0.116693296 -0.1248918 -0.060622353 0.24175312
0.192886 0.45563442 0.024267502 -0.090543896 0.041139636 0.54786336 0.25934198 0.3833231
0.0060776235 -0.016958376 0.48875955 0.39251825 0.27633858 0.26313478 0.0037348259 0.057144314
0.584833 -0.017836208 0.09889304 0.13057731 -0.021350356 0.27291337 0.5841908 0.19832864
0.23590824 0.2010363 0.16585088 0.2596668 0.54440403 0.4976786 0.4516161 0.53154594

conv_layers.1.bn.running_mean f4 [48]
00000000: 9a5f 8c40 f3a4 2f40 21e5 153f af12 233f
00000010: e2c0 0e40 c25f a63f bf5d 1d40 7108 7c3f
00000020: 7a2f 3c40 89ef 9d3f 7129 0040 7af4 4240
00000030: aeb7 5a40 409e 9f3f 7053 0140 b55c 603f
00000040: ef04 9f3f 3fa5 3640 24cd ce3f d32d 7f3f
00000050: 249e bf3f a08b 4a40 4eec 0540 b19c eb3f
00000060: a117 5c3f b1f1 be3f 63e4 4e40 8aa0 d63e
00000070: b16d 8b3e 628e 1c40 4282 a53f 2605 2240
00000080: 2eaf cf3f ad27 9f3f 48ac 1c40 aadd 9040
00000090: 1c8a 7640 ea68 0740 ca62 6d40 0083 8f3f
000000a0: 8e35 3140 5b13 c83f 0603 1b40 6a4f fa3f
000000b0: 6f57 f73e 6f35 ba3f 0057 eb3f 4066 3940
4.38667 2.7444427 0.5855275 0.63700384 2.2305226 1.2997973 2.4588468 0.9845038
2.9403977 1.2338725 2.0025294 3.0461717 3.417461 1.2470169 2.0207176 0.8764146
1.2423381 2.8538358 1.6156354 0.996793 1.4970136 3.164772 2.092548 1.8407193
0.85973555 1.4917508 3.2326896 0.41919357 0.27232125 2.4461904 1.2930377 2.5315642
1.6225336 1.2433983 2.4480152 4.5270586 3.8521795 2.1157784 3.7091546 1.1211853
2.7688937 1.5630907 2.4220595 1.9555485 0.48308894 1.4547557 1.8385925 2.8968658

conv_layers.1.bn.running_var f4 [48]
00000000: b384 3242 615a 4140 a34b 0c40 1ed7 2140
00000010: d194 3f41 b106 6340 8108 ce40 e985 4d40
00000020: 7cda 4941 e0b7 2540 abd8 0241 b24c dd41
00000030: 295f ae40 178c 9c40 f4cf 6840 36bd 2340
00000040: 5771 0041 fd25 cf41 3a38 3540 9d13 3a40
00000050: b569 6a40 8001 1e42 340d 2a41 d453 cc40
00000060: 3096 c83f 31ed af40 f03a ce41 6b72 f63f
00000070: 27d5 ad3f 9ddc c840 2dac b740 05b2 e340
00000080: 3808 2241 9130 9340 1bee 8841 95bf a941
00000090: 8570 9b40 8117 1541 221c e141 be99 3f40
000000a0: f18b 4241 8bd7 3841 95a2 7f40 8606 2e41
000000b0: 405e 2a40 fb64 1e41 9005 6041 4180 ae41
44.62959 3.0211413 2.1921165 2.5287547 11.973832 3.5472834 6.438538 3.2112982
12.615841 2.5893478 8.177897 27.662449 5.449116 4.892101 3.6376925 2.5584235
8.027671 25.893549 2.8315568 2.907447 3.6627018 39.501465 10.628223 6.385233
1.5670834 5.497704 25.778778 1.9253668 1.3580674 6.2769303 5.7397676 7.115481
10.127007 4.5996785 17.116262 21.218546 4.8574853 9.318238 28.138737 2.9937587
12.159165 11.552623 3.9942982 10.876593 2.6620026 9.899653 14.001358 21.812624

conv_layers.2.conv.weight f4 [48, 48, 3, 3]
00000000: 92b7 56bd f9d4 94be 58ab 2bbe ed16 d1bc
00000010: adf0 40bd 4ff4 d4bd 4bed 2fbe 7257 cbbc
00000020: f391 013e 79b8 8bbd 21b2 973d 45b2 feba
00000030: a61b 0dbe aa0a eb3d 35a7 5bbd 0c91 223d
00000040: 4c4f e43d 7aee dcbd 4763 36be 64d8 5bbd
00000050: 87f2 47be 5c81 0ebe c1a0 b9be f3b1 dfbd
00000060: b654 2bbe cbe0 4cbe d009 67be 489a c83a
00000070: c4eb 6abe f123 85be 009e 133e 070b 493e
00000080: 535c 633e e2cf 4b3d 780c 353e 5cc5 953d
00000090: 0f23 023d 9fbd ab3d f13c cbbd e3ce e83c
000000a0: 2882 35bc 4b3f c5bc 22c8 123e 5220 9abd
000000b0: e6af a33c c165 32bd d5d1 333a bf32 ba3d
000000c0: 6d1e 6fbd c9ee 32be 0926 213c 1ff4 a8bd
000000d0: 3362 41be 06a2 653d fa0f c73b 0bf6 c9ba
000000e0: 2496 e13c ef33 93bd 8892 96bd a9bc 73bd
000000f0: 49d6 8fbd c6c5 993c ec89 5d3d 5939 86bc
00000100: 2719 9cbd ae73 2ebe 156e b83d 1316 2dbe
00000110: 132b 56be 099b 92bd 8e0a 0dbe b2fd 66be
00000120: 82b4 a43c 922e 3d3e 2659 9ebd 5a28 593b
00000130: da71 97bc 116b 04be fdd5 953d d151 a6bd
00000140: 6840 6c3d 1130 ed3d 9c38 37bd 04f1 f0bc
00000150: bc93 21bd c283 3e3d 327f a6bc 56b1 3bbd
00000160: 186f cf3d 99a4 f23c 2519 34be 472b bc3c
00000170: 18c7 85bd 37fb b8bd 38d9 1ebd 2d09 f0bd
00000180: f94e 45bd 6461 57bd a146 d2bd 05a2 023e
00000190: 6ef9 67be 66a1 00bf f3c9 0cbe 8053 69be
000001a0: c1f2 b5bd b32c 33be daa7 103d 8e1c 413e
000001b0: 5b11 d93d c322 1b3c 146d 043e 09e9 33bb
000001c0: fe75 46be 41ae 53be 3356 f6bd 1b5c edbd
000001d0: cc14 083d 3276 cdbc 5ebe 983d a473 08be
000001e0: 2f64 e83c 5571 c73b 8bb3 dbbc 9771 523b
000001f0: f787 37be c342 48be f256 65be 2b24 f43d
00000200: 8330 c73d 3ba8 7b3c 3fd3 183e 3454 66bd
00000210: 4e2f 0a3d c021 63bd b15a 27be 32db e8bd
00000220: 8c8a 5ebe 54e8 68be 9733 3cbd 6e85 66be
00000230: 0061 67be 26a0 4bbe 69a8 89be b6e6 12be
00000240: 8523 23be b077 8abe 921a 1dbe 0d04 d53c
00000250: 814d 4b3e a458 be3c 09e9 bbba d39d c23c
00000260: 119d 533c 58f2 8a3d e6fb 55be 6f7f 9dbe
00000270: ea50 04bd f223 593c 1bfa 1cbd 7baf 493e
00000280: a0cd 713e 4507 2b3e a559 f6bc 2628 893e
00000290: 502b 583c f47f 1b3e 31be cc3d 0066 643d
000002a0: 1561 cf3d 1aef 52be 4aab f9bc c274 4ebe
000002b0: 109b 913c 4457 a9bd c57b ba3d 5767 f13d
000002c0: d9af a63d abb1 0b3e 6919 cc3d 4272 9ebc
000002d0: e714 f63c b7ac d8bc 0d23 8bbc 6003 01be
000002e0: 227b 78bd 9cc3 39be 5447 21be 8ba4 c63d
000002f0: 340f 00bd eea0 b03d 9850 69be 8633 a3be
00000300: cbcb ddbd c32c efbd d353 3cbd b447 c6bd
00000310: 90a6 843d ae69 653e acfb 3a3c 4890 83bd
00000320: 995e 213e 77ee fabb 6ede fe3d 2229 9b3d
00000330: e546 17be 978f 8ebc 4d79 53bd f25c 73be
00000340: dceb 09be 5523 61be e655 29be 4346 d1bd
00000350: 44ef 13be c847 25bd a24f 1f3d 6671 06bd
00000360: 4759 1cbd ede2 573e 2d08 3ebd b242 9a3d
00000370: e40f 1f3d 66e7 8c3d 95f5 533d 4f26 88be
00000380: 4b74 3e3d 6633 043e 5941 903d 06ab 56bc
00000390: be16 c7bd 4a68 203e 6f71 9abd e09c 3fbe
000003a0: f655 893d 52a2 963d 8ffe 2e3c bba7 75be
000003b0: cfb0 62be 748b f13d b320 a7bd 8cf2 6fbe
000003c0: 14cb 983d a5e1 2dbd 3924 053e 6215 a7be
000003d0: 2188 78be bfd1 68be 9735 b5bc feee 013e
000003e0: bb1b 9b3d d786 b53c b94f a13d b173 363b
000003f0: 9e22 953d 6e9e 99bd 1971 e3bd d33a 51bc
-0.05242116 -0.29068735 -0.16764581 -0.025523627 -0.047104526 -0.10398161 -0.17180364 -0.02482197
0.12653331 -0.06822295 0.07407022 -0.001943179 -0.13780078 0.114766434 -0.053626258 0.03968911
0.11147937 -0.10787673 -0.17811309 -0.053673163 -0.1952611 -0.13916534 -0.36255458 -0.10922613
-0.16731533 -0.20007627 -0.22562337 0.0015304768 -0.229415 -0.26003984 0.14415741 0.19633113
0.22203188 0.0497588 0.17680538 0.07313034 0.031771716 0.08385777 -0.09923733 0.028418964
-0.011078395 -0.024078032 0.14334157 -0.07525696 0.019981336 -0.04355407 0.00068595755 0.0909171
-0.058378626 -0.17473902 0.009835728 -0.082496874 -0.18885116 0.05606272 0.0060749026 -0.001540841
0.027537413 -0.0718764 -0.07352167 -0.059506092 -0.070232935 0.018771064 0.05408661 -0.016384767
-0.07621985 -0.17036316 0.090053715 -0.16902952 -0.20914869 -0.07158477 -0.13773558 -0.22557715
0.020105604 0.18474796 -0.077318475 0.0033135624 -0.018486906 -0.12931468 0.07316206 -0.08121074
0.05767861 0.115814336 -0.04473172 -0.0294118 -0.03944753 0.046512373 -0.020324323 -0.045823418
0.10128611 0.029619502 -0.17587717 0.022969855 -0.06532115 -0.090322904 -0.038781375 -0.117205
-0.048171017 -0.052583113 -0.10267378 0.12757118 -0.22653744 -0.50246274 -0.13748913 -0.22785759
-0.08884192 -0.1749752 0.035316326 0.18858549 0.105990134 0.009468737 0.12932235 -0.0027452132
-0.19380948 -0.20671941 -0.1202816 -0.11589833 0.03322296 -0.025080774 0.07458185 -0.13325363
0.028368084 0.0060865083 -0.026819011 0.0032111162 -0.1792296 -0.19556718 -0.22396448 0.11920961
0.0972605 0.0153599335 0.14924334 -0.056232646 0.03373652 -0.05545211 -0.1634319 -0.11369933
-0.21732539 -0.22744876 -0.045947637 -0.22511837 -0.22595596 -0.1988531 -0.268863 -0.14345822
-0.15931518 -0.2704444 -0.15342167 0.026002908 0.19853784 0.023235627 -0.0014336418 0.023756897
0.0129158655 0.06784505 -0.20896873 -0.30761287 -0.03230373 0.013253199 -0.038324457 0.19695847
0.23613596 0.16701992 -0.030072043 0.26788443 0.01319392 0.15185529 0.09997214 0.055761337
0.10125939 -0.20599023 -0.030477185 -0.20161727 0.017774135 -0.08268598 0.091056384 0.11787289
0.08139009 0.13641994 0.09965784 -0.019341592 0.030039264 -0.026449544 -0.016984487 -0.12598944
-0.060664304 -0.18141025 -0.15749866 0.09699353 -0.0312645 0.08624445 -0.2278465 -0.31875247
-0.10829886 -0.116784595 -0.04597838 -0.09681645 0.06477082 0.22403595 0.011412542 -0.06424004
0.15758742 -0.0076578218 0.12444769 0.07576205 -0.14773138 -0.017402453 -0.051629353 -0.23765925
-0.1346888 -0.21986134 -0.16536674 -0.102184795 -0.14446741 -0.04035166 0.038894303 -0.03282299
-0.03817108 0.21082659 -0.046394516 0.07532252 0.038833514 0.06880073 0.051747877 -0.26591727
0.046497624 0.12910232 0.07043714 -0.013102299 -0.097211346 0.15664783 -0.07541167 -0.18712187
0.06705849 0.07355179 0.010680809 -0.23989765 -0.2213776 0.11794177 -0.08160534 -0.23432368
0.07460609 -0.04245152 0.13002099 -0.326335 -0.24270679 -0.22736262 -0.02212028 0.12688825
0.075736485 0.022159023 0.07876534 0.0027839954 0.07281993 -0.07500921 -0.11105556 -0.012770372

conv_layers.2.conv.bias f4 [48]
00000000: f94e 34be 2fd5 ccbd 6064 96bd 6142 aabe
00000010: 5fe0 78be 5cb9 9fbe a685 8bbe eb3b babd
00000020: 2061 3cbe 2134 a1be 610f 14bf 8638 46be
00000030: 5fa6 3fbe 5f35 b5be 0d9a c1be 1fec 99be
00000040: 4957 31be 8cc1 c2bd d434 85be e15f 20be
00000050: 2113 56be 31d7 99be f1de 5fbe 0c97 f1be
00000060: b509 bdbd d77d 95bd f35a f3bd b4cf 60be
00000070: b2b8 e7be c421 a9be 08df 83be 3fdf 1dbe
00000080: d35f 1fbe e1f0 96be 0ee8 cdbe f54e 3abd
00000090: 3e45 5bbe f286 16be 27e2 d8be 81c4 40be
000000a0: 85fa ffbe ef76 2ebe a10b f8be e445 3bbe
000000b0: a0a6 56be 5829 20be 99dc 01be 1354 2ebe
-0.1760825 -0.10001599 -0.07343364 -0.33253768 -0.24304341 -0.31196105 -0.27250403 -0.0909346
-0.18396425 -0.31485084 -0.57835966 -0.193575 -0.1871581 -0.3539228 -0.37812844 -0.3006296
-0.17318453 -0.095095724 -0.26016867 -0.15661575 -0.20905735 -0.3004699 -0.21862389 -0.47185552
-0.09230367 -0.07299393 -0.118825816 -0.21954232 -0.452581 -0.33033574 -0.25756097 -0.15417193
-0.15563898 -0.2948065 -0.40216106 -0.045485456 -0.21413133 -0.14699915 -0.4236004 -0.1882496
-0.4999582 -0.17037557 -0.48446372 -0.1828838 -0.20962 -0.15640771 -0.12681808 -0.1702426

conv_layers.2.bn.weight f4 [48]
00000000: 16da 5d3f d6aa 393f 2f6b 5f3f ee97 733f
00000010: 3af8 853f a636 5b3f 34c7 753f 81c1 643f
00000020: 949d 053f 2b8f 4c3f 6970 383f 3d53 4b3f
00000030: 17d3 513f 6cb5 4f3f 841c 703f c67c 803f
00000040: 59f2 453f fc0a 3b3f 969a 813f 3e78 433f
00000050: 84f1 4f3f f1d9 633f 795a 473f 9e18 213f
00000060: 0b3d 4b3f 493f 363f 7f7c 273f 97b0 4f3f
00000070: 7164 493f 35bb 693f 0924 443f 743b 2b3f
00000080: c424 5e3f db00 403f 76ab 7b3f 7dfe 5e3f
00000090: 6335 7a3f 27f8 543f 844a 513f 7ee4 443f
000000a0: ad15 5e3f 7644 853f aa7b 493f 9c01 603f
000000b0: fc60 6b3f 56ee 4b3f 5d20 483f 7784 403f
0.866609 0.725263 0.87272924 0.951537 1.0466378 0.8563026 0.96007085 0.89357764
0.5219357 0.79905957 0.72046524 0.79423887 0.8196272 0.811362 0.9379351 1.0038078
0.7732292 0.73063636 1.0125301 0.7635535 0.812279 0.8900443 0.77872425 0.6292819
0.7939002 0.71190315 0.6542434 0.8112883 0.78668886 0.9130128 0.76617485 0.66887593
0.8677485 0.75001305 0.98308504 0.8710707 0.9773771 0.8319115 0.81754327 0.7691115
0.86751825 1.0411518 0.7870432 0.87502456 0.9194486 0.79660547 0.7817438 0.75202125

conv_layers.2.bn.bias f4 [48]
00000000: 8cd4 43be 2e5c 97bd 0de3 fe3b aaf3 383e
00000010: 9c04 063e 499a 1a3d 47a2 4ebc ae58 df3d
00000020: e7cf 8c3d 9af4 1b3e a431 983e 4285 29bc
00000030: c356 ffbb 1263 803e dd97 723d 9627 1abd
00000040: fa6a 53be 4ab2 0a3e 320d f83c 3c37 233e
00000050: 8448 c63d b36d 9fbc 8748 183d 65e0 5e3e
00000060: 1d6c 9a3d d51f 35be 94a3 d4bd f11a b6bd
00000070: 49e7 dcbd cc7c f0bc af78 993c fb7b ac3d
00000080: 8264 f4bd 922b 533d 79a1 103e 94c7 293c
00000090: 21f1 8dbd c87b 803d 052e 923e 2a99 1f3d
000000a0: 4419 483d d19a 183e d632 2a3e f0f4 ca3e
000000b0: 7b1b 243e dd96 633e 8dfb d93c 5d1b 79bd
-0.19124049 -0.07390629 0.0077785314 0.180617 0.13087696 0.037744794 -0.012611932 0.10905586
0.06875592 0.15230027 0.29725373 -0.010346713 -0.007792325 0.25075585 0.05922686 -0.03763541
-0.20646277 0.13544574 0.03027973 0.15939039 0.096818 -0.019461488 0.037178542 0.21765287
0.07540152 -0.17687924 -0.103827626 -0.088918574 -0.10786302 -0.029356383 0.018734304 0.08422085
-0.11933233 0.051555224 0.14124097 0.010362525 -0.06930757 0.062736094 0.28550735 0.038964428
0.04885222 0.14902808 0.16620955 0.39639997 0.16026108 0.22225519 0.026609207 -0.06081711

conv_layers.2.bn.running_mean f4 [48]
00000000: 2e4f 693f 0b5b 1240 e631 bc3f 3371 4e3f
00000010: d31e ad3e 54e2 1b40 01ef b83f 8103 8b3f
00000020: 963d 8440 f99f 6640 9535 9740 48cb 553e
00000030: 183d 223f d607 a63f 892c 183e 780c d83f
00000040: bc62 813f 64d8 c03f e4fa 943e 9d36 6e3f
00000050: 1f2e 683f f2c5 653f 8452 5b3f 0f30 0f40
00000060: 2395 013f 9487 3a40 66fe 943f abd3 823f
00000070: 935e c33f 22f7 a63e 2886 fe3f cb42 af40
00000080: 11f1 be3f 0189 e43f 19f9 7e3f eeb4 2740
00000090: b3cf 8b3f a740 983f b118 4c40 7800 2940
000000a0: efbb a53e 4a86 703f bb62 a53f ede4 523f
000000b0: 9948 8b3f fd0a 593f 4adb 2f3f 7815 713f
0.91136444 2.2868068 1.4702728 0.8064148 0.3381258 2.435689 1.4447938 1.0860444
4.132518 3.603514 4.725291 0.20878327 0.6337447 1.2971141 0.14860739 1.6878805
1.0108256 1.5066037 0.29097664 0.93052083 0.90695375 0.89755166 0.85672784 2.2373083
0.5061819 2.914525 1.1640136 1.0220846 1.5263237 0.32610422 1.9884691 5.4769034
1.4917318 1.785431 0.9959884 2.620418 1.092276 1.189473 3.189007 2.6406536
0.32369944 0.9395491 1.2920755 0.82380563 1.088153 0.8478239 0.68693984 0.94173384

conv_layers.2.bn.running_var f4 [48]
00000000: bab7 db3f c1c5 8940 a1e5 3b40 1178 1240
00000010: 2740 813f 83cf e340 d207 df40 9bc5 2a40
00000020: c400 2a41 4f32 1c41 c2ad 8e41 c851 873e
00000030: 8e17 c83f 4118 cf40 4c34 a13e d5ec 3c40
00000040: 948e 1940 4500 6440 407c 2e3f 4b38 3c40
00000050: ca9b 4e40 1570 2c40 1b9d 0640 ccb2 e540
00000060: d92e 663f 1a2d fa40 8588 1a40 5130 4040
00000070: f7b0 aa40 3736 4d3f 862c 9440 f7d1 6141
00000080: b6a8 8540 4f21 0a41 b481 3240 4fb5 ad40
00000090: f196 0140 0094 4940 afbe 3741 f990 9740
000000a0: 8a4b 543f f23a 2c40 4dd6 8240 5cc0 4540
000000b0: 4326 5c40 9197 1840 83f5 0d40 908b 2340
1.7165444 4.30539 2.9358904 2.2885783 1.0097703 7.119081 6.9697046 2.6683109
10.625187 9.762282 17.834843 0.26429582 1.5632188 6.4717107 0.31485212 2.951955
2.3993273 3.5625165 0.6815834 2.9409359 3.2282586 2.694341 2.103339 7.178076
0.89915234 7.8180056 2.4145825 3.002949 5.334102 0.8016085 4.630435 14.113761
4.1768446 8.633132 2.7891665 5.4283824 2.0248377 3.1496582 11.484054 4.736447
0.82927763 2.6910977 4.08866 3.0898657 3.4398353 2.3842509 2.2181098 2.5553932
